node {
  name: "data/wav_filename"
  op: "Placeholder"
  attr {
    key: "dtype"
    value {
      type: DT_STRING
    }
  }
  attr {
    key: "shape"
    value {
      shape {
      }
    }
  }
}
node {
  name: "data/ReadFile"
  op: "ReadFile"
  input: "data/wav_filename"
}
node {
  name: "data/DecodeWav"
  op: "DecodeWav"
  input: "data/ReadFile"
  attr {
    key: "desired_channels"
    value {
      i: 1
    }
  }
  attr {
    key: "desired_samples"
    value {
      i: 16000
    }
  }
}
node {
  name: "data/foreground_volume"
  op: "Placeholder"
  attr {
    key: "dtype"
    value {
      type: DT_FLOAT
    }
  }
  attr {
    key: "shape"
    value {
      shape {
      }
    }
  }
}
node {
  name: "data/Mul"
  op: "Mul"
  input: "data/DecodeWav"
  input: "data/foreground_volume"
  attr {
    key: "T"
    value {
      type: DT_FLOAT
    }
  }
}
node {
  name: "data/time_shift_padding"
  op: "Placeholder"
  attr {
    key: "dtype"
    value {
      type: DT_INT32
    }
  }
  attr {
    key: "shape"
    value {
      shape {
        dim {
          size: 2
        }
        dim {
          size: 2
        }
      }
    }
  }
}
node {
  name: "data/time_shift_offset"
  op: "Placeholder"
  attr {
    key: "dtype"
    value {
      type: DT_INT32
    }
  }
  attr {
    key: "shape"
    value {
      shape {
        dim {
          size: 2
        }
      }
    }
  }
}
node {
  name: "data/Pad"
  op: "Pad"
  input: "data/Mul"
  input: "data/time_shift_padding"
  attr {
    key: "T"
    value {
      type: DT_FLOAT
    }
  }
  attr {
    key: "Tpaddings"
    value {
      type: DT_INT32
    }
  }
}
node {
  name: "data/Slice/size"
  op: "Const"
  attr {
    key: "dtype"
    value {
      type: DT_INT32
    }
  }
  attr {
    key: "value"
    value {
      tensor {
        dtype: DT_INT32
        tensor_shape {
          dim {
            size: 2
          }
        }
        tensor_content: "\200>\000\000\377\377\377\377"
      }
    }
  }
}
node {
  name: "data/Slice"
  op: "Slice"
  input: "data/Pad"
  input: "data/time_shift_offset"
  input: "data/Slice/size"
  attr {
    key: "Index"
    value {
      type: DT_INT32
    }
  }
  attr {
    key: "T"
    value {
      type: DT_FLOAT
    }
  }
}
node {
  name: "data/background_data"
  op: "Placeholder"
  attr {
    key: "dtype"
    value {
      type: DT_FLOAT
    }
  }
  attr {
    key: "shape"
    value {
      shape {
        dim {
          size: 16000
        }
        dim {
          size: 1
        }
      }
    }
  }
}
node {
  name: "data/background_volume"
  op: "Placeholder"
  attr {
    key: "dtype"
    value {
      type: DT_FLOAT
    }
  }
  attr {
    key: "shape"
    value {
      shape {
      }
    }
  }
}
node {
  name: "data/Mul_1"
  op: "Mul"
  input: "data/background_data"
  input: "data/background_volume"
  attr {
    key: "T"
    value {
      type: DT_FLOAT
    }
  }
}
node {
  name: "data/Add"
  op: "Add"
  input: "data/Mul_1"
  input: "data/Slice"
  attr {
    key: "T"
    value {
      type: DT_FLOAT
    }
  }
}
node {
  name: "data/clip_by_value/Minimum/y"
  op: "Const"
  attr {
    key: "dtype"
    value {
      type: DT_FLOAT
    }
  }
  attr {
    key: "value"
    value {
      tensor {
        dtype: DT_FLOAT
        tensor_shape {
        }
        float_val: 1.0
      }
    }
  }
}
node {
  name: "data/clip_by_value/Minimum"
  op: "Minimum"
  input: "data/Add"
  input: "data/clip_by_value/Minimum/y"
  attr {
    key: "T"
    value {
      type: DT_FLOAT
    }
  }
}
node {
  name: "data/clip_by_value/y"
  op: "Const"
  attr {
    key: "dtype"
    value {
      type: DT_FLOAT
    }
  }
  attr {
    key: "value"
    value {
      tensor {
        dtype: DT_FLOAT
        tensor_shape {
        }
        float_val: -1.0
      }
    }
  }
}
node {
  name: "data/clip_by_value"
  op: "Maximum"
  input: "data/clip_by_value/Minimum"
  input: "data/clip_by_value/y"
  attr {
    key: "T"
    value {
      type: DT_FLOAT
    }
  }
}
node {
  name: "data/AudioSpectrogram"
  op: "AudioSpectrogram"
  input: "data/clip_by_value"
  attr {
    key: "magnitude_squared"
    value {
      b: true
    }
  }
  attr {
    key: "stride"
    value {
      i: 160
    }
  }
  attr {
    key: "window_size"
    value {
      i: 480
    }
  }
}
node {
  name: "data/ExpandDims/dim"
  op: "Const"
  attr {
    key: "dtype"
    value {
      type: DT_INT32
    }
  }
  attr {
    key: "value"
    value {
      tensor {
        dtype: DT_INT32
        tensor_shape {
        }
        int_val: -1
      }
    }
  }
}
node {
  name: "data/ExpandDims"
  op: "ExpandDims"
  input: "data/AudioSpectrogram"
  input: "data/ExpandDims/dim"
  attr {
    key: "T"
    value {
      type: DT_FLOAT
    }
  }
  attr {
    key: "Tdim"
    value {
      type: DT_INT32
    }
  }
}
node {
  name: "data/spectrogram/tag"
  op: "Const"
  attr {
    key: "dtype"
    value {
      type: DT_STRING
    }
  }
  attr {
    key: "value"
    value {
      tensor {
        dtype: DT_STRING
        tensor_shape {
        }
        string_val: "data/spectrogram"
      }
    }
  }
}
node {
  name: "data/spectrogram"
  op: "ImageSummary"
  input: "data/spectrogram/tag"
  input: "data/ExpandDims"
  attr {
    key: "T"
    value {
      type: DT_FLOAT
    }
  }
  attr {
    key: "bad_color"
    value {
      tensor {
        dtype: DT_UINT8
        tensor_shape {
          dim {
            size: 4
          }
        }
        int_val: 255
        int_val: 0
        int_val: 0
        int_val: 255
      }
    }
  }
  attr {
    key: "max_images"
    value {
      i: 1
    }
  }
}
node {
  name: "data/Mul_2/y"
  op: "Const"
  attr {
    key: "dtype"
    value {
      type: DT_FLOAT
    }
  }
  attr {
    key: "value"
    value {
      tensor {
        dtype: DT_FLOAT
        tensor_shape {
        }
        float_val: 32768.0
      }
    }
  }
}
node {
  name: "data/Mul_2"
  op: "Mul"
  input: "data/clip_by_value"
  input: "data/Mul_2/y"
  attr {
    key: "T"
    value {
      type: DT_FLOAT
    }
  }
}
node {
  name: "data/Cast"
  op: "Cast"
  input: "data/Mul_2"
  attr {
    key: "DstT"
    value {
      type: DT_INT16
    }
  }
  attr {
    key: "SrcT"
    value {
      type: DT_FLOAT
    }
  }
  attr {
    key: "Truncate"
    value {
      b: false
    }
  }
}
node {
  name: "data/Reshape/shape"
  op: "Const"
  attr {
    key: "dtype"
    value {
      type: DT_INT32
    }
  }
  attr {
    key: "value"
    value {
      tensor {
        dtype: DT_INT32
        tensor_shape {
          dim {
            size: 1
          }
        }
        int_val: -1
      }
    }
  }
}
node {
  name: "data/Reshape"
  op: "Reshape"
  input: "data/Cast"
  input: "data/Reshape/shape"
  attr {
    key: "T"
    value {
      type: DT_INT16
    }
  }
  attr {
    key: "Tshape"
    value {
      type: DT_INT32
    }
  }
}
node {
  name: "data/AudioMicrofrontend"
  op: "AudioMicrofrontend"
  input: "data/Reshape"
  attr {
    key: "enable_log"
    value {
      b: true
    }
  }
  attr {
    key: "enable_pcan"
    value {
      b: true
    }
  }
  attr {
    key: "even_smoothing"
    value {
      f: 0.02500000037252903
    }
  }
  attr {
    key: "frame_stride"
    value {
      i: 1
    }
  }
  attr {
    key: "gain_bits"
    value {
      i: 21
    }
  }
  attr {
    key: "left_context"
    value {
      i: 0
    }
  }
  attr {
    key: "lower_band_limit"
    value {
      f: 125.0
    }
  }
  attr {
    key: "min_signal_remaining"
    value {
      f: 0.05000000074505806
    }
  }
  attr {
    key: "num_channels"
    value {
      i: 40
    }
  }
  attr {
    key: "odd_smoothing"
    value {
      f: 0.05999999865889549
    }
  }
  attr {
    key: "out_scale"
    value {
      i: 1
    }
  }
  attr {
    key: "out_type"
    value {
      type: DT_FLOAT
    }
  }
  attr {
    key: "pcan_offset"
    value {
      f: 80.0
    }
  }
  attr {
    key: "pcan_strength"
    value {
      f: 0.949999988079071
    }
  }
  attr {
    key: "right_context"
    value {
      i: 0
    }
  }
  attr {
    key: "sample_rate"
    value {
      i: 16000
    }
  }
  attr {
    key: "scale_shift"
    value {
      i: 6
    }
  }
  attr {
    key: "smoothing_bits"
    value {
      i: 10
    }
  }
  attr {
    key: "upper_band_limit"
    value {
      f: 7500.0
    }
  }
  attr {
    key: "window_size"
    value {
      i: 30
    }
  }
  attr {
    key: "window_step"
    value {
      i: 10
    }
  }
  attr {
    key: "zero_padding"
    value {
      b: false
    }
  }
}
node {
  name: "data/Mul_3/y"
  op: "Const"
  attr {
    key: "dtype"
    value {
      type: DT_FLOAT
    }
  }
  attr {
    key: "value"
    value {
      tensor {
        dtype: DT_FLOAT
        tensor_shape {
        }
        float_val: 0.0390625
      }
    }
  }
}
node {
  name: "data/Mul_3"
  op: "Mul"
  input: "data/AudioMicrofrontend"
  input: "data/Mul_3/y"
  attr {
    key: "T"
    value {
      type: DT_FLOAT
    }
  }
}
node {
  name: "data/ExpandDims_1/dim"
  op: "Const"
  attr {
    key: "dtype"
    value {
      type: DT_INT32
    }
  }
  attr {
    key: "value"
    value {
      tensor {
        dtype: DT_INT32
        tensor_shape {
        }
        int_val: -1
      }
    }
  }
}
node {
  name: "data/ExpandDims_1"
  op: "ExpandDims"
  input: "data/Mul_3"
  input: "data/ExpandDims_1/dim"
  attr {
    key: "T"
    value {
      type: DT_FLOAT
    }
  }
  attr {
    key: "Tdim"
    value {
      type: DT_INT32
    }
  }
}
node {
  name: "data/ExpandDims_2/dim"
  op: "Const"
  attr {
    key: "dtype"
    value {
      type: DT_INT32
    }
  }
  attr {
    key: "value"
    value {
      tensor {
        dtype: DT_INT32
        tensor_shape {
        }
        int_val: 0
      }
    }
  }
}
node {
  name: "data/ExpandDims_2"
  op: "ExpandDims"
  input: "data/ExpandDims_1"
  input: "data/ExpandDims_2/dim"
  attr {
    key: "T"
    value {
      type: DT_FLOAT
    }
  }
  attr {
    key: "Tdim"
    value {
      type: DT_INT32
    }
  }
}
node {
  name: "data/micro/tag"
  op: "Const"
  attr {
    key: "dtype"
    value {
      type: DT_STRING
    }
  }
  attr {
    key: "value"
    value {
      tensor {
        dtype: DT_STRING
        tensor_shape {
        }
        string_val: "data/micro"
      }
    }
  }
}
node {
  name: "data/micro"
  op: "ImageSummary"
  input: "data/micro/tag"
  input: "data/ExpandDims_2"
  attr {
    key: "T"
    value {
      type: DT_FLOAT
    }
  }
  attr {
    key: "bad_color"
    value {
      tensor {
        dtype: DT_UINT8
        tensor_shape {
          dim {
            size: 4
          }
        }
        int_val: 255
        int_val: 0
        int_val: 0
        int_val: 255
      }
    }
  }
  attr {
    key: "max_images"
    value {
      i: 1
    }
  }
}
node {
  name: "data/Merge/MergeSummary"
  op: "MergeSummary"
  input: "data/spectrogram"
  input: "data/micro"
  attr {
    key: "N"
    value {
      i: 2
    }
  }
}
node {
  name: "fingerprint_input"
  op: "Placeholder"
  attr {
    key: "dtype"
    value {
      type: DT_FLOAT
    }
  }
  attr {
    key: "shape"
    value {
      shape {
        dim {
          size: -1
        }
        dim {
          size: 3920
        }
      }
    }
  }
}
node {
  name: "dropout_rate"
  op: "Placeholder"
  device: "/device:CPU:*"
  attr {
    key: "dtype"
    value {
      type: DT_FLOAT
    }
  }
  attr {
    key: "shape"
    value {
      shape {
        unknown_rank: true
      }
    }
  }
}
node {
  name: "Reshape/shape"
  op: "Const"
  device: "/device:CPU:*"
  attr {
    key: "dtype"
    value {
      type: DT_INT32
    }
  }
  attr {
    key: "value"
    value {
      tensor {
        dtype: DT_INT32
        tensor_shape {
          dim {
            size: 4
          }
        }
        tensor_content: "\377\377\377\377b\000\000\000(\000\000\000\001\000\000\000"
      }
    }
  }
}
node {
  name: "Reshape"
  op: "Reshape"
  input: "fingerprint_input"
  input: "Reshape/shape"
  device: "/device:CPU:*"
  attr {
    key: "T"
    value {
      type: DT_FLOAT
    }
  }
  attr {
    key: "Tshape"
    value {
      type: DT_INT32
    }
  }
}
node {
  name: "first_weights/Initializer/truncated_normal/shape"
  op: "Const"
  attr {
    key: "_class"
    value {
      list {
        s: "loc:@first_weights"
      }
    }
  }
  attr {
    key: "dtype"
    value {
      type: DT_INT32
    }
  }
  attr {
    key: "value"
    value {
      tensor {
        dtype: DT_INT32
        tensor_shape {
          dim {
            size: 4
          }
        }
        tensor_content: "\n\000\000\000\010\000\000\000\001\000\000\000\010\000\000\000"
      }
    }
  }
}
node {
  name: "first_weights/Initializer/truncated_normal/mean"
  op: "Const"
  attr {
    key: "_class"
    value {
      list {
        s: "loc:@first_weights"
      }
    }
  }
  attr {
    key: "dtype"
    value {
      type: DT_FLOAT
    }
  }
  attr {
    key: "value"
    value {
      tensor {
        dtype: DT_FLOAT
        tensor_shape {
        }
        float_val: 0.0
      }
    }
  }
}
node {
  name: "first_weights/Initializer/truncated_normal/stddev"
  op: "Const"
  attr {
    key: "_class"
    value {
      list {
        s: "loc:@first_weights"
      }
    }
  }
  attr {
    key: "dtype"
    value {
      type: DT_FLOAT
    }
  }
  attr {
    key: "value"
    value {
      tensor {
        dtype: DT_FLOAT
        tensor_shape {
        }
        float_val: 0.009999999776482582
      }
    }
  }
}
node {
  name: "first_weights/Initializer/truncated_normal/TruncatedNormal"
  op: "TruncatedNormal"
  input: "first_weights/Initializer/truncated_normal/shape"
  attr {
    key: "T"
    value {
      type: DT_INT32
    }
  }
  attr {
    key: "_class"
    value {
      list {
        s: "loc:@first_weights"
      }
    }
  }
  attr {
    key: "dtype"
    value {
      type: DT_FLOAT
    }
  }
  attr {
    key: "seed"
    value {
      i: 0
    }
  }
  attr {
    key: "seed2"
    value {
      i: 0
    }
  }
}
node {
  name: "first_weights/Initializer/truncated_normal/mul"
  op: "Mul"
  input: "first_weights/Initializer/truncated_normal/TruncatedNormal"
  input: "first_weights/Initializer/truncated_normal/stddev"
  attr {
    key: "T"
    value {
      type: DT_FLOAT
    }
  }
  attr {
    key: "_class"
    value {
      list {
        s: "loc:@first_weights"
      }
    }
  }
}
node {
  name: "first_weights/Initializer/truncated_normal"
  op: "Add"
  input: "first_weights/Initializer/truncated_normal/mul"
  input: "first_weights/Initializer/truncated_normal/mean"
  attr {
    key: "T"
    value {
      type: DT_FLOAT
    }
  }
  attr {
    key: "_class"
    value {
      list {
        s: "loc:@first_weights"
      }
    }
  }
}
node {
  name: "first_weights"
  op: "VariableV2"
  device: "/device:CPU:*"
  attr {
    key: "_class"
    value {
      list {
        s: "loc:@first_weights"
      }
    }
  }
  attr {
    key: "container"
    value {
      s: ""
    }
  }
  attr {
    key: "dtype"
    value {
      type: DT_FLOAT
    }
  }
  attr {
    key: "shape"
    value {
      shape {
        dim {
          size: 10
        }
        dim {
          size: 8
        }
        dim {
          size: 1
        }
        dim {
          size: 8
        }
      }
    }
  }
  attr {
    key: "shared_name"
    value {
      s: ""
    }
  }
}
node {
  name: "first_weights/Assign"
  op: "Assign"
  input: "first_weights"
  input: "first_weights/Initializer/truncated_normal"
  device: "/device:CPU:*"
  attr {
    key: "T"
    value {
      type: DT_FLOAT
    }
  }
  attr {
    key: "_class"
    value {
      list {
        s: "loc:@first_weights"
      }
    }
  }
  attr {
    key: "use_locking"
    value {
      b: true
    }
  }
  attr {
    key: "validate_shape"
    value {
      b: true
    }
  }
}
node {
  name: "first_weights/read"
  op: "Identity"
  input: "first_weights"
  device: "/device:CPU:*"
  attr {
    key: "T"
    value {
      type: DT_FLOAT
    }
  }
  attr {
    key: "_class"
    value {
      list {
        s: "loc:@first_weights"
      }
    }
  }
}
node {
  name: "first_bias/Initializer/zeros"
  op: "Const"
  attr {
    key: "_class"
    value {
      list {
        s: "loc:@first_bias"
      }
    }
  }
  attr {
    key: "dtype"
    value {
      type: DT_FLOAT
    }
  }
  attr {
    key: "value"
    value {
      tensor {
        dtype: DT_FLOAT
        tensor_shape {
          dim {
            size: 8
          }
        }
        float_val: 0.0
      }
    }
  }
}
node {
  name: "first_bias"
  op: "VariableV2"
  device: "/device:CPU:*"
  attr {
    key: "_class"
    value {
      list {
        s: "loc:@first_bias"
      }
    }
  }
  attr {
    key: "container"
    value {
      s: ""
    }
  }
  attr {
    key: "dtype"
    value {
      type: DT_FLOAT
    }
  }
  attr {
    key: "shape"
    value {
      shape {
        dim {
          size: 8
        }
      }
    }
  }
  attr {
    key: "shared_name"
    value {
      s: ""
    }
  }
}
node {
  name: "first_bias/Assign"
  op: "Assign"
  input: "first_bias"
  input: "first_bias/Initializer/zeros"
  device: "/device:CPU:*"
  attr {
    key: "T"
    value {
      type: DT_FLOAT
    }
  }
  attr {
    key: "_class"
    value {
      list {
        s: "loc:@first_bias"
      }
    }
  }
  attr {
    key: "use_locking"
    value {
      b: true
    }
  }
  attr {
    key: "validate_shape"
    value {
      b: true
    }
  }
}
node {
  name: "first_bias/read"
  op: "Identity"
  input: "first_bias"
  device: "/device:CPU:*"
  attr {
    key: "T"
    value {
      type: DT_FLOAT
    }
  }
  attr {
    key: "_class"
    value {
      list {
        s: "loc:@first_bias"
      }
    }
  }
}
node {
  name: "Conv2D"
  op: "Conv2D"
  input: "Reshape"
  input: "first_weights/read"
  device: "/device:CPU:*"
  attr {
    key: "T"
    value {
      type: DT_FLOAT
    }
  }
  attr {
    key: "data_format"
    value {
      s: "NHWC"
    }
  }
  attr {
    key: "dilations"
    value {
      list {
        i: 1
        i: 1
        i: 1
        i: 1
      }
    }
  }
  attr {
    key: "explicit_paddings"
    value {
      list {
      }
    }
  }
  attr {
    key: "padding"
    value {
      s: "SAME"
    }
  }
  attr {
    key: "strides"
    value {
      list {
        i: 1
        i: 2
        i: 2
        i: 1
      }
    }
  }
  attr {
    key: "use_cudnn_on_gpu"
    value {
      b: true
    }
  }
}
node {
  name: "add"
  op: "AddV2"
  input: "Conv2D"
  input: "first_bias/read"
  device: "/device:CPU:*"
  attr {
    key: "T"
    value {
      type: DT_FLOAT
    }
  }
}
node {
  name: "Relu"
  op: "Relu"
  input: "add"
  device: "/device:CPU:*"
  attr {
    key: "T"
    value {
      type: DT_FLOAT
    }
  }
}
node {
  name: "dropout/Shape"
  op: "Shape"
  input: "Relu"
  device: "/device:CPU:*"
  attr {
    key: "T"
    value {
      type: DT_FLOAT
    }
  }
  attr {
    key: "out_type"
    value {
      type: DT_INT32
    }
  }
}
node {
  name: "dropout/random_uniform/min"
  op: "Const"
  device: "/device:CPU:*"
  attr {
    key: "dtype"
    value {
      type: DT_FLOAT
    }
  }
  attr {
    key: "value"
    value {
      tensor {
        dtype: DT_FLOAT
        tensor_shape {
        }
        float_val: 0.0
      }
    }
  }
}
node {
  name: "dropout/random_uniform/max"
  op: "Const"
  device: "/device:CPU:*"
  attr {
    key: "dtype"
    value {
      type: DT_FLOAT
    }
  }
  attr {
    key: "value"
    value {
      tensor {
        dtype: DT_FLOAT
        tensor_shape {
        }
        float_val: 1.0
      }
    }
  }
}
node {
  name: "dropout/random_uniform/RandomUniform"
  op: "RandomUniform"
  input: "dropout/Shape"
  device: "/device:CPU:*"
  attr {
    key: "T"
    value {
      type: DT_INT32
    }
  }
  attr {
    key: "dtype"
    value {
      type: DT_FLOAT
    }
  }
  attr {
    key: "seed"
    value {
      i: 0
    }
  }
  attr {
    key: "seed2"
    value {
      i: 0
    }
  }
}
node {
  name: "dropout/random_uniform/sub"
  op: "Sub"
  input: "dropout/random_uniform/max"
  input: "dropout/random_uniform/min"
  device: "/device:CPU:*"
  attr {
    key: "T"
    value {
      type: DT_FLOAT
    }
  }
}
node {
  name: "dropout/random_uniform/mul"
  op: "Mul"
  input: "dropout/random_uniform/RandomUniform"
  input: "dropout/random_uniform/sub"
  device: "/device:CPU:*"
  attr {
    key: "T"
    value {
      type: DT_FLOAT
    }
  }
}
node {
  name: "dropout/random_uniform"
  op: "Add"
  input: "dropout/random_uniform/mul"
  input: "dropout/random_uniform/min"
  device: "/device:CPU:*"
  attr {
    key: "T"
    value {
      type: DT_FLOAT
    }
  }
}
node {
  name: "dropout/sub/x"
  op: "Const"
  device: "/device:CPU:*"
  attr {
    key: "dtype"
    value {
      type: DT_FLOAT
    }
  }
  attr {
    key: "value"
    value {
      tensor {
        dtype: DT_FLOAT
        tensor_shape {
        }
        float_val: 1.0
      }
    }
  }
}
node {
  name: "dropout/sub"
  op: "Sub"
  input: "dropout/sub/x"
  input: "dropout_rate"
  device: "/device:CPU:*"
  attr {
    key: "T"
    value {
      type: DT_FLOAT
    }
  }
}
node {
  name: "dropout/truediv/x"
  op: "Const"
  device: "/device:CPU:*"
  attr {
    key: "dtype"
    value {
      type: DT_FLOAT
    }
  }
  attr {
    key: "value"
    value {
      tensor {
        dtype: DT_FLOAT
        tensor_shape {
        }
        float_val: 1.0
      }
    }
  }
}
node {
  name: "dropout/truediv"
  op: "RealDiv"
  input: "dropout/truediv/x"
  input: "dropout/sub"
  device: "/device:CPU:*"
  attr {
    key: "T"
    value {
      type: DT_FLOAT
    }
  }
}
node {
  name: "dropout/GreaterEqual"
  op: "GreaterEqual"
  input: "dropout/random_uniform"
  input: "dropout_rate"
  device: "/device:CPU:*"
  attr {
    key: "T"
    value {
      type: DT_FLOAT
    }
  }
}
node {
  name: "dropout/mul"
  op: "Mul"
  input: "Relu"
  input: "dropout/truediv"
  device: "/device:CPU:*"
  attr {
    key: "T"
    value {
      type: DT_FLOAT
    }
  }
}
node {
  name: "dropout/Cast"
  op: "Cast"
  input: "dropout/GreaterEqual"
  device: "/device:CPU:*"
  attr {
    key: "DstT"
    value {
      type: DT_FLOAT
    }
  }
  attr {
    key: "SrcT"
    value {
      type: DT_BOOL
    }
  }
  attr {
    key: "Truncate"
    value {
      b: false
    }
  }
}
node {
  name: "dropout/mul_1"
  op: "Mul"
  input: "dropout/mul"
  input: "dropout/Cast"
  device: "/device:CPU:*"
  attr {
    key: "T"
    value {
      type: DT_FLOAT
    }
  }
}
node {
  name: "second_weights/Initializer/truncated_normal/shape"
  op: "Const"
  attr {
    key: "_class"
    value {
      list {
        s: "loc:@second_weights"
      }
    }
  }
  attr {
    key: "dtype"
    value {
      type: DT_INT32
    }
  }
  attr {
    key: "value"
    value {
      tensor {
        dtype: DT_INT32
        tensor_shape {
          dim {
            size: 4
          }
        }
        tensor_content: "\n\000\000\000\010\000\000\000\010\000\000\000\010\000\000\000"
      }
    }
  }
}
node {
  name: "second_weights/Initializer/truncated_normal/mean"
  op: "Const"
  attr {
    key: "_class"
    value {
      list {
        s: "loc:@second_weights"
      }
    }
  }
  attr {
    key: "dtype"
    value {
      type: DT_FLOAT
    }
  }
  attr {
    key: "value"
    value {
      tensor {
        dtype: DT_FLOAT
        tensor_shape {
        }
        float_val: 0.0
      }
    }
  }
}
node {
  name: "second_weights/Initializer/truncated_normal/stddev"
  op: "Const"
  attr {
    key: "_class"
    value {
      list {
        s: "loc:@second_weights"
      }
    }
  }
  attr {
    key: "dtype"
    value {
      type: DT_FLOAT
    }
  }
  attr {
    key: "value"
    value {
      tensor {
        dtype: DT_FLOAT
        tensor_shape {
        }
        float_val: 0.009999999776482582
      }
    }
  }
}
node {
  name: "second_weights/Initializer/truncated_normal/TruncatedNormal"
  op: "TruncatedNormal"
  input: "second_weights/Initializer/truncated_normal/shape"
  attr {
    key: "T"
    value {
      type: DT_INT32
    }
  }
  attr {
    key: "_class"
    value {
      list {
        s: "loc:@second_weights"
      }
    }
  }
  attr {
    key: "dtype"
    value {
      type: DT_FLOAT
    }
  }
  attr {
    key: "seed"
    value {
      i: 0
    }
  }
  attr {
    key: "seed2"
    value {
      i: 0
    }
  }
}
node {
  name: "second_weights/Initializer/truncated_normal/mul"
  op: "Mul"
  input: "second_weights/Initializer/truncated_normal/TruncatedNormal"
  input: "second_weights/Initializer/truncated_normal/stddev"
  attr {
    key: "T"
    value {
      type: DT_FLOAT
    }
  }
  attr {
    key: "_class"
    value {
      list {
        s: "loc:@second_weights"
      }
    }
  }
}
node {
  name: "second_weights/Initializer/truncated_normal"
  op: "Add"
  input: "second_weights/Initializer/truncated_normal/mul"
  input: "second_weights/Initializer/truncated_normal/mean"
  attr {
    key: "T"
    value {
      type: DT_FLOAT
    }
  }
  attr {
    key: "_class"
    value {
      list {
        s: "loc:@second_weights"
      }
    }
  }
}
node {
  name: "second_weights"
  op: "VariableV2"
  device: "/device:CPU:*"
  attr {
    key: "_class"
    value {
      list {
        s: "loc:@second_weights"
      }
    }
  }
  attr {
    key: "container"
    value {
      s: ""
    }
  }
  attr {
    key: "dtype"
    value {
      type: DT_FLOAT
    }
  }
  attr {
    key: "shape"
    value {
      shape {
        dim {
          size: 10
        }
        dim {
          size: 8
        }
        dim {
          size: 8
        }
        dim {
          size: 8
        }
      }
    }
  }
  attr {
    key: "shared_name"
    value {
      s: ""
    }
  }
}
node {
  name: "second_weights/Assign"
  op: "Assign"
  input: "second_weights"
  input: "second_weights/Initializer/truncated_normal"
  device: "/device:CPU:*"
  attr {
    key: "T"
    value {
      type: DT_FLOAT
    }
  }
  attr {
    key: "_class"
    value {
      list {
        s: "loc:@second_weights"
      }
    }
  }
  attr {
    key: "use_locking"
    value {
      b: true
    }
  }
  attr {
    key: "validate_shape"
    value {
      b: true
    }
  }
}
node {
  name: "second_weights/read"
  op: "Identity"
  input: "second_weights"
  device: "/device:CPU:*"
  attr {
    key: "T"
    value {
      type: DT_FLOAT
    }
  }
  attr {
    key: "_class"
    value {
      list {
        s: "loc:@second_weights"
      }
    }
  }
}
node {
  name: "second_bias/Initializer/zeros"
  op: "Const"
  attr {
    key: "_class"
    value {
      list {
        s: "loc:@second_bias"
      }
    }
  }
  attr {
    key: "dtype"
    value {
      type: DT_FLOAT
    }
  }
  attr {
    key: "value"
    value {
      tensor {
        dtype: DT_FLOAT
        tensor_shape {
          dim {
            size: 8
          }
        }
        float_val: 0.0
      }
    }
  }
}
node {
  name: "second_bias"
  op: "VariableV2"
  device: "/device:CPU:*"
  attr {
    key: "_class"
    value {
      list {
        s: "loc:@second_bias"
      }
    }
  }
  attr {
    key: "container"
    value {
      s: ""
    }
  }
  attr {
    key: "dtype"
    value {
      type: DT_FLOAT
    }
  }
  attr {
    key: "shape"
    value {
      shape {
        dim {
          size: 8
        }
      }
    }
  }
  attr {
    key: "shared_name"
    value {
      s: ""
    }
  }
}
node {
  name: "second_bias/Assign"
  op: "Assign"
  input: "second_bias"
  input: "second_bias/Initializer/zeros"
  device: "/device:CPU:*"
  attr {
    key: "T"
    value {
      type: DT_FLOAT
    }
  }
  attr {
    key: "_class"
    value {
      list {
        s: "loc:@second_bias"
      }
    }
  }
  attr {
    key: "use_locking"
    value {
      b: true
    }
  }
  attr {
    key: "validate_shape"
    value {
      b: true
    }
  }
}
node {
  name: "second_bias/read"
  op: "Identity"
  input: "second_bias"
  device: "/device:CPU:*"
  attr {
    key: "T"
    value {
      type: DT_FLOAT
    }
  }
  attr {
    key: "_class"
    value {
      list {
        s: "loc:@second_bias"
      }
    }
  }
}
node {
  name: "Conv2D_1"
  op: "Conv2D"
  input: "dropout/mul_1"
  input: "second_weights/read"
  device: "/device:CPU:*"
  attr {
    key: "T"
    value {
      type: DT_FLOAT
    }
  }
  attr {
    key: "data_format"
    value {
      s: "NHWC"
    }
  }
  attr {
    key: "dilations"
    value {
      list {
        i: 1
        i: 1
        i: 1
        i: 1
      }
    }
  }
  attr {
    key: "explicit_paddings"
    value {
      list {
      }
    }
  }
  attr {
    key: "padding"
    value {
      s: "SAME"
    }
  }
  attr {
    key: "strides"
    value {
      list {
        i: 1
        i: 8
        i: 8
        i: 1
      }
    }
  }
  attr {
    key: "use_cudnn_on_gpu"
    value {
      b: true
    }
  }
}
node {
  name: "add_1"
  op: "AddV2"
  input: "Conv2D_1"
  input: "second_bias/read"
  device: "/device:CPU:*"
  attr {
    key: "T"
    value {
      type: DT_FLOAT
    }
  }
}
node {
  name: "Relu_1"
  op: "Relu"
  input: "add_1"
  device: "/device:CPU:*"
  attr {
    key: "T"
    value {
      type: DT_FLOAT
    }
  }
}
node {
  name: "dropout_1/Shape"
  op: "Shape"
  input: "Relu_1"
  device: "/device:CPU:*"
  attr {
    key: "T"
    value {
      type: DT_FLOAT
    }
  }
  attr {
    key: "out_type"
    value {
      type: DT_INT32
    }
  }
}
node {
  name: "dropout_1/random_uniform/min"
  op: "Const"
  device: "/device:CPU:*"
  attr {
    key: "dtype"
    value {
      type: DT_FLOAT
    }
  }
  attr {
    key: "value"
    value {
      tensor {
        dtype: DT_FLOAT
        tensor_shape {
        }
        float_val: 0.0
      }
    }
  }
}
node {
  name: "dropout_1/random_uniform/max"
  op: "Const"
  device: "/device:CPU:*"
  attr {
    key: "dtype"
    value {
      type: DT_FLOAT
    }
  }
  attr {
    key: "value"
    value {
      tensor {
        dtype: DT_FLOAT
        tensor_shape {
        }
        float_val: 1.0
      }
    }
  }
}
node {
  name: "dropout_1/random_uniform/RandomUniform"
  op: "RandomUniform"
  input: "dropout_1/Shape"
  device: "/device:CPU:*"
  attr {
    key: "T"
    value {
      type: DT_INT32
    }
  }
  attr {
    key: "dtype"
    value {
      type: DT_FLOAT
    }
  }
  attr {
    key: "seed"
    value {
      i: 0
    }
  }
  attr {
    key: "seed2"
    value {
      i: 0
    }
  }
}
node {
  name: "dropout_1/random_uniform/sub"
  op: "Sub"
  input: "dropout_1/random_uniform/max"
  input: "dropout_1/random_uniform/min"
  device: "/device:CPU:*"
  attr {
    key: "T"
    value {
      type: DT_FLOAT
    }
  }
}
node {
  name: "dropout_1/random_uniform/mul"
  op: "Mul"
  input: "dropout_1/random_uniform/RandomUniform"
  input: "dropout_1/random_uniform/sub"
  device: "/device:CPU:*"
  attr {
    key: "T"
    value {
      type: DT_FLOAT
    }
  }
}
node {
  name: "dropout_1/random_uniform"
  op: "Add"
  input: "dropout_1/random_uniform/mul"
  input: "dropout_1/random_uniform/min"
  device: "/device:CPU:*"
  attr {
    key: "T"
    value {
      type: DT_FLOAT
    }
  }
}
node {
  name: "dropout_1/sub/x"
  op: "Const"
  device: "/device:CPU:*"
  attr {
    key: "dtype"
    value {
      type: DT_FLOAT
    }
  }
  attr {
    key: "value"
    value {
      tensor {
        dtype: DT_FLOAT
        tensor_shape {
        }
        float_val: 1.0
      }
    }
  }
}
node {
  name: "dropout_1/sub"
  op: "Sub"
  input: "dropout_1/sub/x"
  input: "dropout_rate"
  device: "/device:CPU:*"
  attr {
    key: "T"
    value {
      type: DT_FLOAT
    }
  }
}
node {
  name: "dropout_1/truediv/x"
  op: "Const"
  device: "/device:CPU:*"
  attr {
    key: "dtype"
    value {
      type: DT_FLOAT
    }
  }
  attr {
    key: "value"
    value {
      tensor {
        dtype: DT_FLOAT
        tensor_shape {
        }
        float_val: 1.0
      }
    }
  }
}
node {
  name: "dropout_1/truediv"
  op: "RealDiv"
  input: "dropout_1/truediv/x"
  input: "dropout_1/sub"
  device: "/device:CPU:*"
  attr {
    key: "T"
    value {
      type: DT_FLOAT
    }
  }
}
node {
  name: "dropout_1/GreaterEqual"
  op: "GreaterEqual"
  input: "dropout_1/random_uniform"
  input: "dropout_rate"
  device: "/device:CPU:*"
  attr {
    key: "T"
    value {
      type: DT_FLOAT
    }
  }
}
node {
  name: "dropout_1/mul"
  op: "Mul"
  input: "Relu_1"
  input: "dropout_1/truediv"
  device: "/device:CPU:*"
  attr {
    key: "T"
    value {
      type: DT_FLOAT
    }
  }
}
node {
  name: "dropout_1/Cast"
  op: "Cast"
  input: "dropout_1/GreaterEqual"
  device: "/device:CPU:*"
  attr {
    key: "DstT"
    value {
      type: DT_FLOAT
    }
  }
  attr {
    key: "SrcT"
    value {
      type: DT_BOOL
    }
  }
  attr {
    key: "Truncate"
    value {
      b: false
    }
  }
}
node {
  name: "dropout_1/mul_1"
  op: "Mul"
  input: "dropout_1/mul"
  input: "dropout_1/Cast"
  device: "/device:CPU:*"
  attr {
    key: "T"
    value {
      type: DT_FLOAT
    }
  }
}
node {
  name: "Reshape_1/shape"
  op: "Const"
  device: "/device:CPU:*"
  attr {
    key: "dtype"
    value {
      type: DT_INT32
    }
  }
  attr {
    key: "value"
    value {
      tensor {
        dtype: DT_INT32
        tensor_shape {
          dim {
            size: 2
          }
        }
        tensor_content: "\377\377\377\377\250\000\000\000"
      }
    }
  }
}
node {
  name: "Reshape_1"
  op: "Reshape"
  input: "dropout_1/mul_1"
  input: "Reshape_1/shape"
  device: "/device:CPU:*"
  attr {
    key: "T"
    value {
      type: DT_FLOAT
    }
  }
  attr {
    key: "Tshape"
    value {
      type: DT_INT32
    }
  }
}
node {
  name: "final_fc_weights/Initializer/truncated_normal/shape"
  op: "Const"
  attr {
    key: "_class"
    value {
      list {
        s: "loc:@final_fc_weights"
      }
    }
  }
  attr {
    key: "dtype"
    value {
      type: DT_INT32
    }
  }
  attr {
    key: "value"
    value {
      tensor {
        dtype: DT_INT32
        tensor_shape {
          dim {
            size: 2
          }
        }
        tensor_content: "\250\000\000\000\024\000\000\000"
      }
    }
  }
}
node {
  name: "final_fc_weights/Initializer/truncated_normal/mean"
  op: "Const"
  attr {
    key: "_class"
    value {
      list {
        s: "loc:@final_fc_weights"
      }
    }
  }
  attr {
    key: "dtype"
    value {
      type: DT_FLOAT
    }
  }
  attr {
    key: "value"
    value {
      tensor {
        dtype: DT_FLOAT
        tensor_shape {
        }
        float_val: 0.0
      }
    }
  }
}
node {
  name: "final_fc_weights/Initializer/truncated_normal/stddev"
  op: "Const"
  attr {
    key: "_class"
    value {
      list {
        s: "loc:@final_fc_weights"
      }
    }
  }
  attr {
    key: "dtype"
    value {
      type: DT_FLOAT
    }
  }
  attr {
    key: "value"
    value {
      tensor {
        dtype: DT_FLOAT
        tensor_shape {
        }
        float_val: 0.009999999776482582
      }
    }
  }
}
node {
  name: "final_fc_weights/Initializer/truncated_normal/TruncatedNormal"
  op: "TruncatedNormal"
  input: "final_fc_weights/Initializer/truncated_normal/shape"
  attr {
    key: "T"
    value {
      type: DT_INT32
    }
  }
  attr {
    key: "_class"
    value {
      list {
        s: "loc:@final_fc_weights"
      }
    }
  }
  attr {
    key: "dtype"
    value {
      type: DT_FLOAT
    }
  }
  attr {
    key: "seed"
    value {
      i: 0
    }
  }
  attr {
    key: "seed2"
    value {
      i: 0
    }
  }
}
node {
  name: "final_fc_weights/Initializer/truncated_normal/mul"
  op: "Mul"
  input: "final_fc_weights/Initializer/truncated_normal/TruncatedNormal"
  input: "final_fc_weights/Initializer/truncated_normal/stddev"
  attr {
    key: "T"
    value {
      type: DT_FLOAT
    }
  }
  attr {
    key: "_class"
    value {
      list {
        s: "loc:@final_fc_weights"
      }
    }
  }
}
node {
  name: "final_fc_weights/Initializer/truncated_normal"
  op: "Add"
  input: "final_fc_weights/Initializer/truncated_normal/mul"
  input: "final_fc_weights/Initializer/truncated_normal/mean"
  attr {
    key: "T"
    value {
      type: DT_FLOAT
    }
  }
  attr {
    key: "_class"
    value {
      list {
        s: "loc:@final_fc_weights"
      }
    }
  }
}
node {
  name: "final_fc_weights"
  op: "VariableV2"
  device: "/device:CPU:*"
  attr {
    key: "_class"
    value {
      list {
        s: "loc:@final_fc_weights"
      }
    }
  }
  attr {
    key: "container"
    value {
      s: ""
    }
  }
  attr {
    key: "dtype"
    value {
      type: DT_FLOAT
    }
  }
  attr {
    key: "shape"
    value {
      shape {
        dim {
          size: 168
        }
        dim {
          size: 20
        }
      }
    }
  }
  attr {
    key: "shared_name"
    value {
      s: ""
    }
  }
}
node {
  name: "final_fc_weights/Assign"
  op: "Assign"
  input: "final_fc_weights"
  input: "final_fc_weights/Initializer/truncated_normal"
  device: "/device:CPU:*"
  attr {
    key: "T"
    value {
      type: DT_FLOAT
    }
  }
  attr {
    key: "_class"
    value {
      list {
        s: "loc:@final_fc_weights"
      }
    }
  }
  attr {
    key: "use_locking"
    value {
      b: true
    }
  }
  attr {
    key: "validate_shape"
    value {
      b: true
    }
  }
}
node {
  name: "final_fc_weights/read"
  op: "Identity"
  input: "final_fc_weights"
  device: "/device:CPU:*"
  attr {
    key: "T"
    value {
      type: DT_FLOAT
    }
  }
  attr {
    key: "_class"
    value {
      list {
        s: "loc:@final_fc_weights"
      }
    }
  }
}
node {
  name: "final_fc_bias/Initializer/zeros"
  op: "Const"
  attr {
    key: "_class"
    value {
      list {
        s: "loc:@final_fc_bias"
      }
    }
  }
  attr {
    key: "dtype"
    value {
      type: DT_FLOAT
    }
  }
  attr {
    key: "value"
    value {
      tensor {
        dtype: DT_FLOAT
        tensor_shape {
          dim {
            size: 20
          }
        }
        float_val: 0.0
      }
    }
  }
}
node {
  name: "final_fc_bias"
  op: "VariableV2"
  device: "/device:CPU:*"
  attr {
    key: "_class"
    value {
      list {
        s: "loc:@final_fc_bias"
      }
    }
  }
  attr {
    key: "container"
    value {
      s: ""
    }
  }
  attr {
    key: "dtype"
    value {
      type: DT_FLOAT
    }
  }
  attr {
    key: "shape"
    value {
      shape {
        dim {
          size: 20
        }
      }
    }
  }
  attr {
    key: "shared_name"
    value {
      s: ""
    }
  }
}
node {
  name: "final_fc_bias/Assign"
  op: "Assign"
  input: "final_fc_bias"
  input: "final_fc_bias/Initializer/zeros"
  device: "/device:CPU:*"
  attr {
    key: "T"
    value {
      type: DT_FLOAT
    }
  }
  attr {
    key: "_class"
    value {
      list {
        s: "loc:@final_fc_bias"
      }
    }
  }
  attr {
    key: "use_locking"
    value {
      b: true
    }
  }
  attr {
    key: "validate_shape"
    value {
      b: true
    }
  }
}
node {
  name: "final_fc_bias/read"
  op: "Identity"
  input: "final_fc_bias"
  device: "/device:CPU:*"
  attr {
    key: "T"
    value {
      type: DT_FLOAT
    }
  }
  attr {
    key: "_class"
    value {
      list {
        s: "loc:@final_fc_bias"
      }
    }
  }
}
node {
  name: "MatMul"
  op: "MatMul"
  input: "Reshape_1"
  input: "final_fc_weights/read"
  device: "/device:CPU:*"
  attr {
    key: "T"
    value {
      type: DT_FLOAT
    }
  }
  attr {
    key: "transpose_a"
    value {
      b: false
    }
  }
  attr {
    key: "transpose_b"
    value {
      b: false
    }
  }
}
node {
  name: "add_2"
  op: "AddV2"
  input: "MatMul"
  input: "final_fc_bias/read"
  device: "/device:CPU:*"
  attr {
    key: "T"
    value {
      type: DT_FLOAT
    }
  }
}
node {
  name: "normalize/norm/mul"
  op: "Mul"
  input: "add_2"
  input: "add_2"
  device: "/device:CPU:*"
  attr {
    key: "T"
    value {
      type: DT_FLOAT
    }
  }
}
node {
  name: "normalize/norm/Sum/reduction_indices"
  op: "Const"
  device: "/device:CPU:*"
  attr {
    key: "dtype"
    value {
      type: DT_INT32
    }
  }
  attr {
    key: "value"
    value {
      tensor {
        dtype: DT_INT32
        tensor_shape {
          dim {
            size: 1
          }
        }
        int_val: -1
      }
    }
  }
}
node {
  name: "normalize/norm/Sum"
  op: "Sum"
  input: "normalize/norm/mul"
  input: "normalize/norm/Sum/reduction_indices"
  device: "/device:CPU:*"
  attr {
    key: "T"
    value {
      type: DT_FLOAT
    }
  }
  attr {
    key: "Tidx"
    value {
      type: DT_INT32
    }
  }
  attr {
    key: "keep_dims"
    value {
      b: true
    }
  }
}
node {
  name: "normalize/norm/Sqrt"
  op: "Sqrt"
  input: "normalize/norm/Sum"
  device: "/device:CPU:*"
  attr {
    key: "T"
    value {
      type: DT_FLOAT
    }
  }
}
node {
  name: "normalize/truediv"
  op: "RealDiv"
  input: "add_2"
  input: "normalize/norm/Sqrt"
  device: "/device:CPU:*"
  attr {
    key: "T"
    value {
      type: DT_FLOAT
    }
  }
}
node {
  name: "strided_slice/stack"
  op: "Const"
  device: "/device:CPU:*"
  attr {
    key: "dtype"
    value {
      type: DT_INT32
    }
  }
  attr {
    key: "value"
    value {
      tensor {
        dtype: DT_INT32
        tensor_shape {
          dim {
            size: 1
          }
        }
        int_val: 0
      }
    }
  }
}
node {
  name: "strided_slice/stack_1"
  op: "Const"
  device: "/device:CPU:*"
  attr {
    key: "dtype"
    value {
      type: DT_INT32
    }
  }
  attr {
    key: "value"
    value {
      tensor {
        dtype: DT_INT32
        tensor_shape {
          dim {
            size: 1
          }
        }
        int_val: 1
      }
    }
  }
}
node {
  name: "strided_slice/stack_2"
  op: "Const"
  device: "/device:CPU:*"
  attr {
    key: "dtype"
    value {
      type: DT_INT32
    }
  }
  attr {
    key: "value"
    value {
      tensor {
        dtype: DT_INT32
        tensor_shape {
          dim {
            size: 1
          }
        }
        int_val: 1
      }
    }
  }
}
node {
  name: "strided_slice"
  op: "StridedSlice"
  input: "normalize/truediv"
  input: "strided_slice/stack"
  input: "strided_slice/stack_1"
  input: "strided_slice/stack_2"
  device: "/device:CPU:*"
  attr {
    key: "Index"
    value {
      type: DT_INT32
    }
  }
  attr {
    key: "T"
    value {
      type: DT_FLOAT
    }
  }
  attr {
    key: "begin_mask"
    value {
      i: 0
    }
  }
  attr {
    key: "ellipsis_mask"
    value {
      i: 0
    }
  }
  attr {
    key: "end_mask"
    value {
      i: 0
    }
  }
  attr {
    key: "new_axis_mask"
    value {
      i: 0
    }
  }
  attr {
    key: "shrink_axis_mask"
    value {
      i: 1
    }
  }
}
node {
  name: "strided_slice_1/stack"
  op: "Const"
  device: "/device:CPU:*"
  attr {
    key: "dtype"
    value {
      type: DT_INT32
    }
  }
  attr {
    key: "value"
    value {
      tensor {
        dtype: DT_INT32
        tensor_shape {
          dim {
            size: 1
          }
        }
        int_val: 1
      }
    }
  }
}
node {
  name: "strided_slice_1/stack_1"
  op: "Const"
  device: "/device:CPU:*"
  attr {
    key: "dtype"
    value {
      type: DT_INT32
    }
  }
  attr {
    key: "value"
    value {
      tensor {
        dtype: DT_INT32
        tensor_shape {
          dim {
            size: 1
          }
        }
        int_val: 2
      }
    }
  }
}
node {
  name: "strided_slice_1/stack_2"
  op: "Const"
  device: "/device:CPU:*"
  attr {
    key: "dtype"
    value {
      type: DT_INT32
    }
  }
  attr {
    key: "value"
    value {
      tensor {
        dtype: DT_INT32
        tensor_shape {
          dim {
            size: 1
          }
        }
        int_val: 1
      }
    }
  }
}
node {
  name: "strided_slice_1"
  op: "StridedSlice"
  input: "normalize/truediv"
  input: "strided_slice_1/stack"
  input: "strided_slice_1/stack_1"
  input: "strided_slice_1/stack_2"
  device: "/device:CPU:*"
  attr {
    key: "Index"
    value {
      type: DT_INT32
    }
  }
  attr {
    key: "T"
    value {
      type: DT_FLOAT
    }
  }
  attr {
    key: "begin_mask"
    value {
      i: 0
    }
  }
  attr {
    key: "ellipsis_mask"
    value {
      i: 0
    }
  }
  attr {
    key: "end_mask"
    value {
      i: 0
    }
  }
  attr {
    key: "new_axis_mask"
    value {
      i: 0
    }
  }
  attr {
    key: "shrink_axis_mask"
    value {
      i: 1
    }
  }
}
node {
  name: "strided_slice_2/stack"
  op: "Const"
  device: "/device:CPU:*"
  attr {
    key: "dtype"
    value {
      type: DT_INT32
    }
  }
  attr {
    key: "value"
    value {
      tensor {
        dtype: DT_INT32
        tensor_shape {
          dim {
            size: 1
          }
        }
        int_val: 2
      }
    }
  }
}
node {
  name: "strided_slice_2/stack_1"
  op: "Const"
  device: "/device:CPU:*"
  attr {
    key: "dtype"
    value {
      type: DT_INT32
    }
  }
  attr {
    key: "value"
    value {
      tensor {
        dtype: DT_INT32
        tensor_shape {
          dim {
            size: 1
          }
        }
        int_val: 3
      }
    }
  }
}
node {
  name: "strided_slice_2/stack_2"
  op: "Const"
  device: "/device:CPU:*"
  attr {
    key: "dtype"
    value {
      type: DT_INT32
    }
  }
  attr {
    key: "value"
    value {
      tensor {
        dtype: DT_INT32
        tensor_shape {
          dim {
            size: 1
          }
        }
        int_val: 1
      }
    }
  }
}
node {
  name: "strided_slice_2"
  op: "StridedSlice"
  input: "normalize/truediv"
  input: "strided_slice_2/stack"
  input: "strided_slice_2/stack_1"
  input: "strided_slice_2/stack_2"
  device: "/device:CPU:*"
  attr {
    key: "Index"
    value {
      type: DT_INT32
    }
  }
  attr {
    key: "T"
    value {
      type: DT_FLOAT
    }
  }
  attr {
    key: "begin_mask"
    value {
      i: 0
    }
  }
  attr {
    key: "ellipsis_mask"
    value {
      i: 0
    }
  }
  attr {
    key: "end_mask"
    value {
      i: 0
    }
  }
  attr {
    key: "new_axis_mask"
    value {
      i: 0
    }
  }
  attr {
    key: "shrink_axis_mask"
    value {
      i: 0
    }
  }
}
node {
  name: "Mul"
  op: "Mul"
  input: "strided_slice"
  input: "strided_slice_1"
  device: "/device:CPU:*"
  attr {
    key: "T"
    value {
      type: DT_FLOAT
    }
  }
}
node {
  name: "Mul_1"
  op: "Mul"
  input: "strided_slice"
  input: "strided_slice_2"
  device: "/device:CPU:*"
  attr {
    key: "T"
    value {
      type: DT_FLOAT
    }
  }
}
node {
  name: "Sum/reduction_indices"
  op: "Const"
  device: "/device:CPU:*"
  attr {
    key: "dtype"
    value {
      type: DT_INT32
    }
  }
  attr {
    key: "value"
    value {
      tensor {
        dtype: DT_INT32
        tensor_shape {
        }
        int_val: -1
      }
    }
  }
}
node {
  name: "Sum"
  op: "Sum"
  input: "Mul"
  input: "Sum/reduction_indices"
  device: "/device:CPU:*"
  attr {
    key: "T"
    value {
      type: DT_FLOAT
    }
  }
  attr {
    key: "Tidx"
    value {
      type: DT_INT32
    }
  }
  attr {
    key: "keep_dims"
    value {
      b: false
    }
  }
}
node {
  name: "Sum_1/reduction_indices"
  op: "Const"
  device: "/device:CPU:*"
  attr {
    key: "dtype"
    value {
      type: DT_INT32
    }
  }
  attr {
    key: "value"
    value {
      tensor {
        dtype: DT_INT32
        tensor_shape {
        }
        int_val: -1
      }
    }
  }
}
node {
  name: "Sum_1"
  op: "Sum"
  input: "Mul_1"
  input: "Sum_1/reduction_indices"
  device: "/device:CPU:*"
  attr {
    key: "T"
    value {
      type: DT_FLOAT
    }
  }
  attr {
    key: "Tidx"
    value {
      type: DT_INT32
    }
  }
  attr {
    key: "keep_dims"
    value {
      b: false
    }
  }
}
node {
  name: "Exp"
  op: "Exp"
  input: "Sum"
  device: "/device:CPU:*"
  attr {
    key: "T"
    value {
      type: DT_FLOAT
    }
  }
}
node {
  name: "Exp_1"
  op: "Exp"
  input: "Sum_1"
  device: "/device:CPU:*"
  attr {
    key: "T"
    value {
      type: DT_FLOAT
    }
  }
}
node {
  name: "Const"
  op: "Const"
  device: "/device:CPU:*"
  attr {
    key: "dtype"
    value {
      type: DT_INT32
    }
  }
  attr {
    key: "value"
    value {
      tensor {
        dtype: DT_INT32
        tensor_shape {
          dim {
            size: 1
          }
        }
        int_val: 0
      }
    }
  }
}
node {
  name: "Sum_2"
  op: "Sum"
  input: "Exp_1"
  input: "Const"
  device: "/device:CPU:*"
  attr {
    key: "T"
    value {
      type: DT_FLOAT
    }
  }
  attr {
    key: "Tidx"
    value {
      type: DT_INT32
    }
  }
  attr {
    key: "keep_dims"
    value {
      b: false
    }
  }
}
node {
  name: "add_3"
  op: "AddV2"
  input: "Sum_2"
  input: "Exp"
  device: "/device:CPU:*"
  attr {
    key: "T"
    value {
      type: DT_FLOAT
    }
  }
}
node {
  name: "truediv"
  op: "RealDiv"
  input: "Exp"
  input: "add_3"
  device: "/device:CPU:*"
  attr {
    key: "T"
    value {
      type: DT_FLOAT
    }
  }
}
node {
  name: "Log"
  op: "Log"
  input: "truediv"
  device: "/device:CPU:*"
  attr {
    key: "T"
    value {
      type: DT_FLOAT
    }
  }
}
node {
  name: "truediv_1/y"
  op: "Const"
  device: "/device:CPU:*"
  attr {
    key: "dtype"
    value {
      type: DT_FLOAT
    }
  }
  attr {
    key: "value"
    value {
      tensor {
        dtype: DT_FLOAT
        tensor_shape {
        }
        float_val: 3.0
      }
    }
  }
}
node {
  name: "truediv_1"
  op: "RealDiv"
  input: "Log"
  input: "truediv_1/y"
  device: "/device:CPU:*"
  attr {
    key: "T"
    value {
      type: DT_FLOAT
    }
  }
}
node {
  name: "sub"
  op: "Sub"
  input: "strided_slice"
  input: "strided_slice_1"
  device: "/device:CPU:*"
  attr {
    key: "T"
    value {
      type: DT_FLOAT
    }
  }
}
node {
  name: "Square"
  op: "Square"
  input: "sub"
  device: "/device:CPU:*"
  attr {
    key: "T"
    value {
      type: DT_FLOAT
    }
  }
}
node {
  name: "Const_1"
  op: "Const"
  device: "/device:CPU:*"
  attr {
    key: "dtype"
    value {
      type: DT_INT32
    }
  }
  attr {
    key: "value"
    value {
      tensor {
        dtype: DT_INT32
        tensor_shape {
          dim {
            size: 1
          }
        }
        int_val: 0
      }
    }
  }
}
node {
  name: "Sum_3"
  op: "Sum"
  input: "Square"
  input: "Const_1"
  device: "/device:CPU:*"
  attr {
    key: "T"
    value {
      type: DT_FLOAT
    }
  }
  attr {
    key: "Tidx"
    value {
      type: DT_INT32
    }
  }
  attr {
    key: "keep_dims"
    value {
      b: false
    }
  }
}
node {
  name: "sub_1"
  op: "Sub"
  input: "strided_slice"
  input: "strided_slice_2"
  device: "/device:CPU:*"
  attr {
    key: "T"
    value {
      type: DT_FLOAT
    }
  }
}
node {
  name: "Square_1"
  op: "Square"
  input: "sub_1"
  device: "/device:CPU:*"
  attr {
    key: "T"
    value {
      type: DT_FLOAT
    }
  }
}
node {
  name: "Const_2"
  op: "Const"
  device: "/device:CPU:*"
  attr {
    key: "dtype"
    value {
      type: DT_INT32
    }
  }
  attr {
    key: "value"
    value {
      tensor {
        dtype: DT_INT32
        tensor_shape {
          dim {
            size: 2
          }
        }
        tensor_content: "\000\000\000\000\001\000\000\000"
      }
    }
  }
}
node {
  name: "Sum_4"
  op: "Sum"
  input: "Square_1"
  input: "Const_2"
  device: "/device:CPU:*"
  attr {
    key: "T"
    value {
      type: DT_FLOAT
    }
  }
  attr {
    key: "Tidx"
    value {
      type: DT_INT32
    }
  }
  attr {
    key: "keep_dims"
    value {
      b: false
    }
  }
}
node {
  name: "sub_2"
  op: "Sub"
  input: "Sum_3"
  input: "Sum_4"
  device: "/device:CPU:*"
  attr {
    key: "T"
    value {
      type: DT_FLOAT
    }
  }
}
node {
  name: "add_4/x"
  op: "Const"
  device: "/device:CPU:*"
  attr {
    key: "dtype"
    value {
      type: DT_FLOAT
    }
  }
  attr {
    key: "value"
    value {
      tensor {
        dtype: DT_FLOAT
        tensor_shape {
        }
        float_val: 0.0
      }
    }
  }
}
node {
  name: "add_4"
  op: "AddV2"
  input: "add_4/x"
  input: "sub_2"
  device: "/device:CPU:*"
  attr {
    key: "T"
    value {
      type: DT_FLOAT
    }
  }
}
node {
  name: "strided_slice_3/stack"
  op: "Const"
  device: "/device:CPU:*"
  attr {
    key: "dtype"
    value {
      type: DT_INT32
    }
  }
  attr {
    key: "value"
    value {
      tensor {
        dtype: DT_INT32
        tensor_shape {
          dim {
            size: 1
          }
        }
        int_val: 3
      }
    }
  }
}
node {
  name: "strided_slice_3/stack_1"
  op: "Const"
  device: "/device:CPU:*"
  attr {
    key: "dtype"
    value {
      type: DT_INT32
    }
  }
  attr {
    key: "value"
    value {
      tensor {
        dtype: DT_INT32
        tensor_shape {
          dim {
            size: 1
          }
        }
        int_val: 4
      }
    }
  }
}
node {
  name: "strided_slice_3/stack_2"
  op: "Const"
  device: "/device:CPU:*"
  attr {
    key: "dtype"
    value {
      type: DT_INT32
    }
  }
  attr {
    key: "value"
    value {
      tensor {
        dtype: DT_INT32
        tensor_shape {
          dim {
            size: 1
          }
        }
        int_val: 1
      }
    }
  }
}
node {
  name: "strided_slice_3"
  op: "StridedSlice"
  input: "normalize/truediv"
  input: "strided_slice_3/stack"
  input: "strided_slice_3/stack_1"
  input: "strided_slice_3/stack_2"
  device: "/device:CPU:*"
  attr {
    key: "Index"
    value {
      type: DT_INT32
    }
  }
  attr {
    key: "T"
    value {
      type: DT_FLOAT
    }
  }
  attr {
    key: "begin_mask"
    value {
      i: 0
    }
  }
  attr {
    key: "ellipsis_mask"
    value {
      i: 0
    }
  }
  attr {
    key: "end_mask"
    value {
      i: 0
    }
  }
  attr {
    key: "new_axis_mask"
    value {
      i: 0
    }
  }
  attr {
    key: "shrink_axis_mask"
    value {
      i: 1
    }
  }
}
node {
  name: "strided_slice_4/stack"
  op: "Const"
  device: "/device:CPU:*"
  attr {
    key: "dtype"
    value {
      type: DT_INT32
    }
  }
  attr {
    key: "value"
    value {
      tensor {
        dtype: DT_INT32
        tensor_shape {
          dim {
            size: 1
          }
        }
        int_val: 4
      }
    }
  }
}
node {
  name: "strided_slice_4/stack_1"
  op: "Const"
  device: "/device:CPU:*"
  attr {
    key: "dtype"
    value {
      type: DT_INT32
    }
  }
  attr {
    key: "value"
    value {
      tensor {
        dtype: DT_INT32
        tensor_shape {
          dim {
            size: 1
          }
        }
        int_val: 5
      }
    }
  }
}
node {
  name: "strided_slice_4/stack_2"
  op: "Const"
  device: "/device:CPU:*"
  attr {
    key: "dtype"
    value {
      type: DT_INT32
    }
  }
  attr {
    key: "value"
    value {
      tensor {
        dtype: DT_INT32
        tensor_shape {
          dim {
            size: 1
          }
        }
        int_val: 1
      }
    }
  }
}
node {
  name: "strided_slice_4"
  op: "StridedSlice"
  input: "normalize/truediv"
  input: "strided_slice_4/stack"
  input: "strided_slice_4/stack_1"
  input: "strided_slice_4/stack_2"
  device: "/device:CPU:*"
  attr {
    key: "Index"
    value {
      type: DT_INT32
    }
  }
  attr {
    key: "T"
    value {
      type: DT_FLOAT
    }
  }
  attr {
    key: "begin_mask"
    value {
      i: 0
    }
  }
  attr {
    key: "ellipsis_mask"
    value {
      i: 0
    }
  }
  attr {
    key: "end_mask"
    value {
      i: 0
    }
  }
  attr {
    key: "new_axis_mask"
    value {
      i: 0
    }
  }
  attr {
    key: "shrink_axis_mask"
    value {
      i: 1
    }
  }
}
node {
  name: "strided_slice_5/stack"
  op: "Const"
  device: "/device:CPU:*"
  attr {
    key: "dtype"
    value {
      type: DT_INT32
    }
  }
  attr {
    key: "value"
    value {
      tensor {
        dtype: DT_INT32
        tensor_shape {
          dim {
            size: 1
          }
        }
        int_val: 5
      }
    }
  }
}
node {
  name: "strided_slice_5/stack_1"
  op: "Const"
  device: "/device:CPU:*"
  attr {
    key: "dtype"
    value {
      type: DT_INT32
    }
  }
  attr {
    key: "value"
    value {
      tensor {
        dtype: DT_INT32
        tensor_shape {
          dim {
            size: 1
          }
        }
        int_val: 6
      }
    }
  }
}
node {
  name: "strided_slice_5/stack_2"
  op: "Const"
  device: "/device:CPU:*"
  attr {
    key: "dtype"
    value {
      type: DT_INT32
    }
  }
  attr {
    key: "value"
    value {
      tensor {
        dtype: DT_INT32
        tensor_shape {
          dim {
            size: 1
          }
        }
        int_val: 1
      }
    }
  }
}
node {
  name: "strided_slice_5"
  op: "StridedSlice"
  input: "normalize/truediv"
  input: "strided_slice_5/stack"
  input: "strided_slice_5/stack_1"
  input: "strided_slice_5/stack_2"
  device: "/device:CPU:*"
  attr {
    key: "Index"
    value {
      type: DT_INT32
    }
  }
  attr {
    key: "T"
    value {
      type: DT_FLOAT
    }
  }
  attr {
    key: "begin_mask"
    value {
      i: 0
    }
  }
  attr {
    key: "ellipsis_mask"
    value {
      i: 0
    }
  }
  attr {
    key: "end_mask"
    value {
      i: 0
    }
  }
  attr {
    key: "new_axis_mask"
    value {
      i: 0
    }
  }
  attr {
    key: "shrink_axis_mask"
    value {
      i: 0
    }
  }
}
node {
  name: "Mul_2"
  op: "Mul"
  input: "strided_slice_3"
  input: "strided_slice_4"
  device: "/device:CPU:*"
  attr {
    key: "T"
    value {
      type: DT_FLOAT
    }
  }
}
node {
  name: "Mul_3"
  op: "Mul"
  input: "strided_slice_3"
  input: "strided_slice_5"
  device: "/device:CPU:*"
  attr {
    key: "T"
    value {
      type: DT_FLOAT
    }
  }
}
node {
  name: "Sum_5/reduction_indices"
  op: "Const"
  device: "/device:CPU:*"
  attr {
    key: "dtype"
    value {
      type: DT_INT32
    }
  }
  attr {
    key: "value"
    value {
      tensor {
        dtype: DT_INT32
        tensor_shape {
        }
        int_val: -1
      }
    }
  }
}
node {
  name: "Sum_5"
  op: "Sum"
  input: "Mul_2"
  input: "Sum_5/reduction_indices"
  device: "/device:CPU:*"
  attr {
    key: "T"
    value {
      type: DT_FLOAT
    }
  }
  attr {
    key: "Tidx"
    value {
      type: DT_INT32
    }
  }
  attr {
    key: "keep_dims"
    value {
      b: false
    }
  }
}
node {
  name: "Sum_6/reduction_indices"
  op: "Const"
  device: "/device:CPU:*"
  attr {
    key: "dtype"
    value {
      type: DT_INT32
    }
  }
  attr {
    key: "value"
    value {
      tensor {
        dtype: DT_INT32
        tensor_shape {
        }
        int_val: -1
      }
    }
  }
}
node {
  name: "Sum_6"
  op: "Sum"
  input: "Mul_3"
  input: "Sum_6/reduction_indices"
  device: "/device:CPU:*"
  attr {
    key: "T"
    value {
      type: DT_FLOAT
    }
  }
  attr {
    key: "Tidx"
    value {
      type: DT_INT32
    }
  }
  attr {
    key: "keep_dims"
    value {
      b: false
    }
  }
}
node {
  name: "Exp_2"
  op: "Exp"
  input: "Sum_5"
  device: "/device:CPU:*"
  attr {
    key: "T"
    value {
      type: DT_FLOAT
    }
  }
}
node {
  name: "Exp_3"
  op: "Exp"
  input: "Sum_6"
  device: "/device:CPU:*"
  attr {
    key: "T"
    value {
      type: DT_FLOAT
    }
  }
}
node {
  name: "Const_3"
  op: "Const"
  device: "/device:CPU:*"
  attr {
    key: "dtype"
    value {
      type: DT_INT32
    }
  }
  attr {
    key: "value"
    value {
      tensor {
        dtype: DT_INT32
        tensor_shape {
          dim {
            size: 1
          }
        }
        int_val: 0
      }
    }
  }
}
node {
  name: "Sum_7"
  op: "Sum"
  input: "Exp_3"
  input: "Const_3"
  device: "/device:CPU:*"
  attr {
    key: "T"
    value {
      type: DT_FLOAT
    }
  }
  attr {
    key: "Tidx"
    value {
      type: DT_INT32
    }
  }
  attr {
    key: "keep_dims"
    value {
      b: false
    }
  }
}
node {
  name: "add_5"
  op: "AddV2"
  input: "Sum_7"
  input: "Exp_2"
  device: "/device:CPU:*"
  attr {
    key: "T"
    value {
      type: DT_FLOAT
    }
  }
}
node {
  name: "truediv_2"
  op: "RealDiv"
  input: "Exp_2"
  input: "add_5"
  device: "/device:CPU:*"
  attr {
    key: "T"
    value {
      type: DT_FLOAT
    }
  }
}
node {
  name: "Log_1"
  op: "Log"
  input: "truediv_2"
  device: "/device:CPU:*"
  attr {
    key: "T"
    value {
      type: DT_FLOAT
    }
  }
}
node {
  name: "truediv_3/y"
  op: "Const"
  device: "/device:CPU:*"
  attr {
    key: "dtype"
    value {
      type: DT_FLOAT
    }
  }
  attr {
    key: "value"
    value {
      tensor {
        dtype: DT_FLOAT
        tensor_shape {
        }
        float_val: 3.0
      }
    }
  }
}
node {
  name: "truediv_3"
  op: "RealDiv"
  input: "Log_1"
  input: "truediv_3/y"
  device: "/device:CPU:*"
  attr {
    key: "T"
    value {
      type: DT_FLOAT
    }
  }
}
node {
  name: "sub_3"
  op: "Sub"
  input: "strided_slice_3"
  input: "strided_slice_4"
  device: "/device:CPU:*"
  attr {
    key: "T"
    value {
      type: DT_FLOAT
    }
  }
}
node {
  name: "Square_2"
  op: "Square"
  input: "sub_3"
  device: "/device:CPU:*"
  attr {
    key: "T"
    value {
      type: DT_FLOAT
    }
  }
}
node {
  name: "Const_4"
  op: "Const"
  device: "/device:CPU:*"
  attr {
    key: "dtype"
    value {
      type: DT_INT32
    }
  }
  attr {
    key: "value"
    value {
      tensor {
        dtype: DT_INT32
        tensor_shape {
          dim {
            size: 1
          }
        }
        int_val: 0
      }
    }
  }
}
node {
  name: "Sum_8"
  op: "Sum"
  input: "Square_2"
  input: "Const_4"
  device: "/device:CPU:*"
  attr {
    key: "T"
    value {
      type: DT_FLOAT
    }
  }
  attr {
    key: "Tidx"
    value {
      type: DT_INT32
    }
  }
  attr {
    key: "keep_dims"
    value {
      b: false
    }
  }
}
node {
  name: "sub_4"
  op: "Sub"
  input: "strided_slice_3"
  input: "strided_slice_5"
  device: "/device:CPU:*"
  attr {
    key: "T"
    value {
      type: DT_FLOAT
    }
  }
}
node {
  name: "Square_3"
  op: "Square"
  input: "sub_4"
  device: "/device:CPU:*"
  attr {
    key: "T"
    value {
      type: DT_FLOAT
    }
  }
}
node {
  name: "Const_5"
  op: "Const"
  device: "/device:CPU:*"
  attr {
    key: "dtype"
    value {
      type: DT_INT32
    }
  }
  attr {
    key: "value"
    value {
      tensor {
        dtype: DT_INT32
        tensor_shape {
          dim {
            size: 2
          }
        }
        tensor_content: "\000\000\000\000\001\000\000\000"
      }
    }
  }
}
node {
  name: "Sum_9"
  op: "Sum"
  input: "Square_3"
  input: "Const_5"
  device: "/device:CPU:*"
  attr {
    key: "T"
    value {
      type: DT_FLOAT
    }
  }
  attr {
    key: "Tidx"
    value {
      type: DT_INT32
    }
  }
  attr {
    key: "keep_dims"
    value {
      b: false
    }
  }
}
node {
  name: "sub_5"
  op: "Sub"
  input: "Sum_8"
  input: "Sum_9"
  device: "/device:CPU:*"
  attr {
    key: "T"
    value {
      type: DT_FLOAT
    }
  }
}
node {
  name: "add_6"
  op: "AddV2"
  input: "add_4"
  input: "sub_5"
  device: "/device:CPU:*"
  attr {
    key: "T"
    value {
      type: DT_FLOAT
    }
  }
}
node {
  name: "strided_slice_6/stack"
  op: "Const"
  device: "/device:CPU:*"
  attr {
    key: "dtype"
    value {
      type: DT_INT32
    }
  }
  attr {
    key: "value"
    value {
      tensor {
        dtype: DT_INT32
        tensor_shape {
          dim {
            size: 1
          }
        }
        int_val: 6
      }
    }
  }
}
node {
  name: "strided_slice_6/stack_1"
  op: "Const"
  device: "/device:CPU:*"
  attr {
    key: "dtype"
    value {
      type: DT_INT32
    }
  }
  attr {
    key: "value"
    value {
      tensor {
        dtype: DT_INT32
        tensor_shape {
          dim {
            size: 1
          }
        }
        int_val: 7
      }
    }
  }
}
node {
  name: "strided_slice_6/stack_2"
  op: "Const"
  device: "/device:CPU:*"
  attr {
    key: "dtype"
    value {
      type: DT_INT32
    }
  }
  attr {
    key: "value"
    value {
      tensor {
        dtype: DT_INT32
        tensor_shape {
          dim {
            size: 1
          }
        }
        int_val: 1
      }
    }
  }
}
node {
  name: "strided_slice_6"
  op: "StridedSlice"
  input: "normalize/truediv"
  input: "strided_slice_6/stack"
  input: "strided_slice_6/stack_1"
  input: "strided_slice_6/stack_2"
  device: "/device:CPU:*"
  attr {
    key: "Index"
    value {
      type: DT_INT32
    }
  }
  attr {
    key: "T"
    value {
      type: DT_FLOAT
    }
  }
  attr {
    key: "begin_mask"
    value {
      i: 0
    }
  }
  attr {
    key: "ellipsis_mask"
    value {
      i: 0
    }
  }
  attr {
    key: "end_mask"
    value {
      i: 0
    }
  }
  attr {
    key: "new_axis_mask"
    value {
      i: 0
    }
  }
  attr {
    key: "shrink_axis_mask"
    value {
      i: 1
    }
  }
}
node {
  name: "strided_slice_7/stack"
  op: "Const"
  device: "/device:CPU:*"
  attr {
    key: "dtype"
    value {
      type: DT_INT32
    }
  }
  attr {
    key: "value"
    value {
      tensor {
        dtype: DT_INT32
        tensor_shape {
          dim {
            size: 1
          }
        }
        int_val: 7
      }
    }
  }
}
node {
  name: "strided_slice_7/stack_1"
  op: "Const"
  device: "/device:CPU:*"
  attr {
    key: "dtype"
    value {
      type: DT_INT32
    }
  }
  attr {
    key: "value"
    value {
      tensor {
        dtype: DT_INT32
        tensor_shape {
          dim {
            size: 1
          }
        }
        int_val: 8
      }
    }
  }
}
node {
  name: "strided_slice_7/stack_2"
  op: "Const"
  device: "/device:CPU:*"
  attr {
    key: "dtype"
    value {
      type: DT_INT32
    }
  }
  attr {
    key: "value"
    value {
      tensor {
        dtype: DT_INT32
        tensor_shape {
          dim {
            size: 1
          }
        }
        int_val: 1
      }
    }
  }
}
node {
  name: "strided_slice_7"
  op: "StridedSlice"
  input: "normalize/truediv"
  input: "strided_slice_7/stack"
  input: "strided_slice_7/stack_1"
  input: "strided_slice_7/stack_2"
  device: "/device:CPU:*"
  attr {
    key: "Index"
    value {
      type: DT_INT32
    }
  }
  attr {
    key: "T"
    value {
      type: DT_FLOAT
    }
  }
  attr {
    key: "begin_mask"
    value {
      i: 0
    }
  }
  attr {
    key: "ellipsis_mask"
    value {
      i: 0
    }
  }
  attr {
    key: "end_mask"
    value {
      i: 0
    }
  }
  attr {
    key: "new_axis_mask"
    value {
      i: 0
    }
  }
  attr {
    key: "shrink_axis_mask"
    value {
      i: 1
    }
  }
}
node {
  name: "strided_slice_8/stack"
  op: "Const"
  device: "/device:CPU:*"
  attr {
    key: "dtype"
    value {
      type: DT_INT32
    }
  }
  attr {
    key: "value"
    value {
      tensor {
        dtype: DT_INT32
        tensor_shape {
          dim {
            size: 1
          }
        }
        int_val: 8
      }
    }
  }
}
node {
  name: "strided_slice_8/stack_1"
  op: "Const"
  device: "/device:CPU:*"
  attr {
    key: "dtype"
    value {
      type: DT_INT32
    }
  }
  attr {
    key: "value"
    value {
      tensor {
        dtype: DT_INT32
        tensor_shape {
          dim {
            size: 1
          }
        }
        int_val: 9
      }
    }
  }
}
node {
  name: "strided_slice_8/stack_2"
  op: "Const"
  device: "/device:CPU:*"
  attr {
    key: "dtype"
    value {
      type: DT_INT32
    }
  }
  attr {
    key: "value"
    value {
      tensor {
        dtype: DT_INT32
        tensor_shape {
          dim {
            size: 1
          }
        }
        int_val: 1
      }
    }
  }
}
node {
  name: "strided_slice_8"
  op: "StridedSlice"
  input: "normalize/truediv"
  input: "strided_slice_8/stack"
  input: "strided_slice_8/stack_1"
  input: "strided_slice_8/stack_2"
  device: "/device:CPU:*"
  attr {
    key: "Index"
    value {
      type: DT_INT32
    }
  }
  attr {
    key: "T"
    value {
      type: DT_FLOAT
    }
  }
  attr {
    key: "begin_mask"
    value {
      i: 0
    }
  }
  attr {
    key: "ellipsis_mask"
    value {
      i: 0
    }
  }
  attr {
    key: "end_mask"
    value {
      i: 0
    }
  }
  attr {
    key: "new_axis_mask"
    value {
      i: 0
    }
  }
  attr {
    key: "shrink_axis_mask"
    value {
      i: 0
    }
  }
}
node {
  name: "Mul_4"
  op: "Mul"
  input: "strided_slice_6"
  input: "strided_slice_7"
  device: "/device:CPU:*"
  attr {
    key: "T"
    value {
      type: DT_FLOAT
    }
  }
}
node {
  name: "Mul_5"
  op: "Mul"
  input: "strided_slice_6"
  input: "strided_slice_8"
  device: "/device:CPU:*"
  attr {
    key: "T"
    value {
      type: DT_FLOAT
    }
  }
}
node {
  name: "Sum_10/reduction_indices"
  op: "Const"
  device: "/device:CPU:*"
  attr {
    key: "dtype"
    value {
      type: DT_INT32
    }
  }
  attr {
    key: "value"
    value {
      tensor {
        dtype: DT_INT32
        tensor_shape {
        }
        int_val: -1
      }
    }
  }
}
node {
  name: "Sum_10"
  op: "Sum"
  input: "Mul_4"
  input: "Sum_10/reduction_indices"
  device: "/device:CPU:*"
  attr {
    key: "T"
    value {
      type: DT_FLOAT
    }
  }
  attr {
    key: "Tidx"
    value {
      type: DT_INT32
    }
  }
  attr {
    key: "keep_dims"
    value {
      b: false
    }
  }
}
node {
  name: "Sum_11/reduction_indices"
  op: "Const"
  device: "/device:CPU:*"
  attr {
    key: "dtype"
    value {
      type: DT_INT32
    }
  }
  attr {
    key: "value"
    value {
      tensor {
        dtype: DT_INT32
        tensor_shape {
        }
        int_val: -1
      }
    }
  }
}
node {
  name: "Sum_11"
  op: "Sum"
  input: "Mul_5"
  input: "Sum_11/reduction_indices"
  device: "/device:CPU:*"
  attr {
    key: "T"
    value {
      type: DT_FLOAT
    }
  }
  attr {
    key: "Tidx"
    value {
      type: DT_INT32
    }
  }
  attr {
    key: "keep_dims"
    value {
      b: false
    }
  }
}
node {
  name: "Exp_4"
  op: "Exp"
  input: "Sum_10"
  device: "/device:CPU:*"
  attr {
    key: "T"
    value {
      type: DT_FLOAT
    }
  }
}
node {
  name: "Exp_5"
  op: "Exp"
  input: "Sum_11"
  device: "/device:CPU:*"
  attr {
    key: "T"
    value {
      type: DT_FLOAT
    }
  }
}
node {
  name: "Const_6"
  op: "Const"
  device: "/device:CPU:*"
  attr {
    key: "dtype"
    value {
      type: DT_INT32
    }
  }
  attr {
    key: "value"
    value {
      tensor {
        dtype: DT_INT32
        tensor_shape {
          dim {
            size: 1
          }
        }
        int_val: 0
      }
    }
  }
}
node {
  name: "Sum_12"
  op: "Sum"
  input: "Exp_5"
  input: "Const_6"
  device: "/device:CPU:*"
  attr {
    key: "T"
    value {
      type: DT_FLOAT
    }
  }
  attr {
    key: "Tidx"
    value {
      type: DT_INT32
    }
  }
  attr {
    key: "keep_dims"
    value {
      b: false
    }
  }
}
node {
  name: "add_7"
  op: "AddV2"
  input: "Sum_12"
  input: "Exp_4"
  device: "/device:CPU:*"
  attr {
    key: "T"
    value {
      type: DT_FLOAT
    }
  }
}
node {
  name: "truediv_4"
  op: "RealDiv"
  input: "Exp_4"
  input: "add_7"
  device: "/device:CPU:*"
  attr {
    key: "T"
    value {
      type: DT_FLOAT
    }
  }
}
node {
  name: "Log_2"
  op: "Log"
  input: "truediv_4"
  device: "/device:CPU:*"
  attr {
    key: "T"
    value {
      type: DT_FLOAT
    }
  }
}
node {
  name: "truediv_5/y"
  op: "Const"
  device: "/device:CPU:*"
  attr {
    key: "dtype"
    value {
      type: DT_FLOAT
    }
  }
  attr {
    key: "value"
    value {
      tensor {
        dtype: DT_FLOAT
        tensor_shape {
        }
        float_val: 3.0
      }
    }
  }
}
node {
  name: "truediv_5"
  op: "RealDiv"
  input: "Log_2"
  input: "truediv_5/y"
  device: "/device:CPU:*"
  attr {
    key: "T"
    value {
      type: DT_FLOAT
    }
  }
}
node {
  name: "sub_6"
  op: "Sub"
  input: "strided_slice_6"
  input: "strided_slice_7"
  device: "/device:CPU:*"
  attr {
    key: "T"
    value {
      type: DT_FLOAT
    }
  }
}
node {
  name: "Square_4"
  op: "Square"
  input: "sub_6"
  device: "/device:CPU:*"
  attr {
    key: "T"
    value {
      type: DT_FLOAT
    }
  }
}
node {
  name: "Const_7"
  op: "Const"
  device: "/device:CPU:*"
  attr {
    key: "dtype"
    value {
      type: DT_INT32
    }
  }
  attr {
    key: "value"
    value {
      tensor {
        dtype: DT_INT32
        tensor_shape {
          dim {
            size: 1
          }
        }
        int_val: 0
      }
    }
  }
}
node {
  name: "Sum_13"
  op: "Sum"
  input: "Square_4"
  input: "Const_7"
  device: "/device:CPU:*"
  attr {
    key: "T"
    value {
      type: DT_FLOAT
    }
  }
  attr {
    key: "Tidx"
    value {
      type: DT_INT32
    }
  }
  attr {
    key: "keep_dims"
    value {
      b: false
    }
  }
}
node {
  name: "sub_7"
  op: "Sub"
  input: "strided_slice_6"
  input: "strided_slice_8"
  device: "/device:CPU:*"
  attr {
    key: "T"
    value {
      type: DT_FLOAT
    }
  }
}
node {
  name: "Square_5"
  op: "Square"
  input: "sub_7"
  device: "/device:CPU:*"
  attr {
    key: "T"
    value {
      type: DT_FLOAT
    }
  }
}
node {
  name: "Const_8"
  op: "Const"
  device: "/device:CPU:*"
  attr {
    key: "dtype"
    value {
      type: DT_INT32
    }
  }
  attr {
    key: "value"
    value {
      tensor {
        dtype: DT_INT32
        tensor_shape {
          dim {
            size: 2
          }
        }
        tensor_content: "\000\000\000\000\001\000\000\000"
      }
    }
  }
}
node {
  name: "Sum_14"
  op: "Sum"
  input: "Square_5"
  input: "Const_8"
  device: "/device:CPU:*"
  attr {
    key: "T"
    value {
      type: DT_FLOAT
    }
  }
  attr {
    key: "Tidx"
    value {
      type: DT_INT32
    }
  }
  attr {
    key: "keep_dims"
    value {
      b: false
    }
  }
}
node {
  name: "sub_8"
  op: "Sub"
  input: "Sum_13"
  input: "Sum_14"
  device: "/device:CPU:*"
  attr {
    key: "T"
    value {
      type: DT_FLOAT
    }
  }
}
node {
  name: "add_8"
  op: "AddV2"
  input: "add_6"
  input: "sub_8"
  device: "/device:CPU:*"
  attr {
    key: "T"
    value {
      type: DT_FLOAT
    }
  }
}
node {
  name: "strided_slice_9/stack"
  op: "Const"
  device: "/device:CPU:*"
  attr {
    key: "dtype"
    value {
      type: DT_INT32
    }
  }
  attr {
    key: "value"
    value {
      tensor {
        dtype: DT_INT32
        tensor_shape {
          dim {
            size: 1
          }
        }
        int_val: 9
      }
    }
  }
}
node {
  name: "strided_slice_9/stack_1"
  op: "Const"
  device: "/device:CPU:*"
  attr {
    key: "dtype"
    value {
      type: DT_INT32
    }
  }
  attr {
    key: "value"
    value {
      tensor {
        dtype: DT_INT32
        tensor_shape {
          dim {
            size: 1
          }
        }
        int_val: 10
      }
    }
  }
}
node {
  name: "strided_slice_9/stack_2"
  op: "Const"
  device: "/device:CPU:*"
  attr {
    key: "dtype"
    value {
      type: DT_INT32
    }
  }
  attr {
    key: "value"
    value {
      tensor {
        dtype: DT_INT32
        tensor_shape {
          dim {
            size: 1
          }
        }
        int_val: 1
      }
    }
  }
}
node {
  name: "strided_slice_9"
  op: "StridedSlice"
  input: "normalize/truediv"
  input: "strided_slice_9/stack"
  input: "strided_slice_9/stack_1"
  input: "strided_slice_9/stack_2"
  device: "/device:CPU:*"
  attr {
    key: "Index"
    value {
      type: DT_INT32
    }
  }
  attr {
    key: "T"
    value {
      type: DT_FLOAT
    }
  }
  attr {
    key: "begin_mask"
    value {
      i: 0
    }
  }
  attr {
    key: "ellipsis_mask"
    value {
      i: 0
    }
  }
  attr {
    key: "end_mask"
    value {
      i: 0
    }
  }
  attr {
    key: "new_axis_mask"
    value {
      i: 0
    }
  }
  attr {
    key: "shrink_axis_mask"
    value {
      i: 1
    }
  }
}
node {
  name: "strided_slice_10/stack"
  op: "Const"
  device: "/device:CPU:*"
  attr {
    key: "dtype"
    value {
      type: DT_INT32
    }
  }
  attr {
    key: "value"
    value {
      tensor {
        dtype: DT_INT32
        tensor_shape {
          dim {
            size: 1
          }
        }
        int_val: 10
      }
    }
  }
}
node {
  name: "strided_slice_10/stack_1"
  op: "Const"
  device: "/device:CPU:*"
  attr {
    key: "dtype"
    value {
      type: DT_INT32
    }
  }
  attr {
    key: "value"
    value {
      tensor {
        dtype: DT_INT32
        tensor_shape {
          dim {
            size: 1
          }
        }
        int_val: 11
      }
    }
  }
}
node {
  name: "strided_slice_10/stack_2"
  op: "Const"
  device: "/device:CPU:*"
  attr {
    key: "dtype"
    value {
      type: DT_INT32
    }
  }
  attr {
    key: "value"
    value {
      tensor {
        dtype: DT_INT32
        tensor_shape {
          dim {
            size: 1
          }
        }
        int_val: 1
      }
    }
  }
}
node {
  name: "strided_slice_10"
  op: "StridedSlice"
  input: "normalize/truediv"
  input: "strided_slice_10/stack"
  input: "strided_slice_10/stack_1"
  input: "strided_slice_10/stack_2"
  device: "/device:CPU:*"
  attr {
    key: "Index"
    value {
      type: DT_INT32
    }
  }
  attr {
    key: "T"
    value {
      type: DT_FLOAT
    }
  }
  attr {
    key: "begin_mask"
    value {
      i: 0
    }
  }
  attr {
    key: "ellipsis_mask"
    value {
      i: 0
    }
  }
  attr {
    key: "end_mask"
    value {
      i: 0
    }
  }
  attr {
    key: "new_axis_mask"
    value {
      i: 0
    }
  }
  attr {
    key: "shrink_axis_mask"
    value {
      i: 1
    }
  }
}
node {
  name: "strided_slice_11/stack"
  op: "Const"
  device: "/device:CPU:*"
  attr {
    key: "dtype"
    value {
      type: DT_INT32
    }
  }
  attr {
    key: "value"
    value {
      tensor {
        dtype: DT_INT32
        tensor_shape {
          dim {
            size: 1
          }
        }
        int_val: 11
      }
    }
  }
}
node {
  name: "strided_slice_11/stack_1"
  op: "Const"
  device: "/device:CPU:*"
  attr {
    key: "dtype"
    value {
      type: DT_INT32
    }
  }
  attr {
    key: "value"
    value {
      tensor {
        dtype: DT_INT32
        tensor_shape {
          dim {
            size: 1
          }
        }
        int_val: 12
      }
    }
  }
}
node {
  name: "strided_slice_11/stack_2"
  op: "Const"
  device: "/device:CPU:*"
  attr {
    key: "dtype"
    value {
      type: DT_INT32
    }
  }
  attr {
    key: "value"
    value {
      tensor {
        dtype: DT_INT32
        tensor_shape {
          dim {
            size: 1
          }
        }
        int_val: 1
      }
    }
  }
}
node {
  name: "strided_slice_11"
  op: "StridedSlice"
  input: "normalize/truediv"
  input: "strided_slice_11/stack"
  input: "strided_slice_11/stack_1"
  input: "strided_slice_11/stack_2"
  device: "/device:CPU:*"
  attr {
    key: "Index"
    value {
      type: DT_INT32
    }
  }
  attr {
    key: "T"
    value {
      type: DT_FLOAT
    }
  }
  attr {
    key: "begin_mask"
    value {
      i: 0
    }
  }
  attr {
    key: "ellipsis_mask"
    value {
      i: 0
    }
  }
  attr {
    key: "end_mask"
    value {
      i: 0
    }
  }
  attr {
    key: "new_axis_mask"
    value {
      i: 0
    }
  }
  attr {
    key: "shrink_axis_mask"
    value {
      i: 0
    }
  }
}
node {
  name: "Mul_6"
  op: "Mul"
  input: "strided_slice_9"
  input: "strided_slice_10"
  device: "/device:CPU:*"
  attr {
    key: "T"
    value {
      type: DT_FLOAT
    }
  }
}
node {
  name: "Mul_7"
  op: "Mul"
  input: "strided_slice_9"
  input: "strided_slice_11"
  device: "/device:CPU:*"
  attr {
    key: "T"
    value {
      type: DT_FLOAT
    }
  }
}
node {
  name: "Sum_15/reduction_indices"
  op: "Const"
  device: "/device:CPU:*"
  attr {
    key: "dtype"
    value {
      type: DT_INT32
    }
  }
  attr {
    key: "value"
    value {
      tensor {
        dtype: DT_INT32
        tensor_shape {
        }
        int_val: -1
      }
    }
  }
}
node {
  name: "Sum_15"
  op: "Sum"
  input: "Mul_6"
  input: "Sum_15/reduction_indices"
  device: "/device:CPU:*"
  attr {
    key: "T"
    value {
      type: DT_FLOAT
    }
  }
  attr {
    key: "Tidx"
    value {
      type: DT_INT32
    }
  }
  attr {
    key: "keep_dims"
    value {
      b: false
    }
  }
}
node {
  name: "Sum_16/reduction_indices"
  op: "Const"
  device: "/device:CPU:*"
  attr {
    key: "dtype"
    value {
      type: DT_INT32
    }
  }
  attr {
    key: "value"
    value {
      tensor {
        dtype: DT_INT32
        tensor_shape {
        }
        int_val: -1
      }
    }
  }
}
node {
  name: "Sum_16"
  op: "Sum"
  input: "Mul_7"
  input: "Sum_16/reduction_indices"
  device: "/device:CPU:*"
  attr {
    key: "T"
    value {
      type: DT_FLOAT
    }
  }
  attr {
    key: "Tidx"
    value {
      type: DT_INT32
    }
  }
  attr {
    key: "keep_dims"
    value {
      b: false
    }
  }
}
node {
  name: "Exp_6"
  op: "Exp"
  input: "Sum_15"
  device: "/device:CPU:*"
  attr {
    key: "T"
    value {
      type: DT_FLOAT
    }
  }
}
node {
  name: "Exp_7"
  op: "Exp"
  input: "Sum_16"
  device: "/device:CPU:*"
  attr {
    key: "T"
    value {
      type: DT_FLOAT
    }
  }
}
node {
  name: "Const_9"
  op: "Const"
  device: "/device:CPU:*"
  attr {
    key: "dtype"
    value {
      type: DT_INT32
    }
  }
  attr {
    key: "value"
    value {
      tensor {
        dtype: DT_INT32
        tensor_shape {
          dim {
            size: 1
          }
        }
        int_val: 0
      }
    }
  }
}
node {
  name: "Sum_17"
  op: "Sum"
  input: "Exp_7"
  input: "Const_9"
  device: "/device:CPU:*"
  attr {
    key: "T"
    value {
      type: DT_FLOAT
    }
  }
  attr {
    key: "Tidx"
    value {
      type: DT_INT32
    }
  }
  attr {
    key: "keep_dims"
    value {
      b: false
    }
  }
}
node {
  name: "add_9"
  op: "AddV2"
  input: "Sum_17"
  input: "Exp_6"
  device: "/device:CPU:*"
  attr {
    key: "T"
    value {
      type: DT_FLOAT
    }
  }
}
node {
  name: "truediv_6"
  op: "RealDiv"
  input: "Exp_6"
  input: "add_9"
  device: "/device:CPU:*"
  attr {
    key: "T"
    value {
      type: DT_FLOAT
    }
  }
}
node {
  name: "Log_3"
  op: "Log"
  input: "truediv_6"
  device: "/device:CPU:*"
  attr {
    key: "T"
    value {
      type: DT_FLOAT
    }
  }
}
node {
  name: "truediv_7/y"
  op: "Const"
  device: "/device:CPU:*"
  attr {
    key: "dtype"
    value {
      type: DT_FLOAT
    }
  }
  attr {
    key: "value"
    value {
      tensor {
        dtype: DT_FLOAT
        tensor_shape {
        }
        float_val: 3.0
      }
    }
  }
}
node {
  name: "truediv_7"
  op: "RealDiv"
  input: "Log_3"
  input: "truediv_7/y"
  device: "/device:CPU:*"
  attr {
    key: "T"
    value {
      type: DT_FLOAT
    }
  }
}
node {
  name: "sub_9"
  op: "Sub"
  input: "strided_slice_9"
  input: "strided_slice_10"
  device: "/device:CPU:*"
  attr {
    key: "T"
    value {
      type: DT_FLOAT
    }
  }
}
node {
  name: "Square_6"
  op: "Square"
  input: "sub_9"
  device: "/device:CPU:*"
  attr {
    key: "T"
    value {
      type: DT_FLOAT
    }
  }
}
node {
  name: "Const_10"
  op: "Const"
  device: "/device:CPU:*"
  attr {
    key: "dtype"
    value {
      type: DT_INT32
    }
  }
  attr {
    key: "value"
    value {
      tensor {
        dtype: DT_INT32
        tensor_shape {
          dim {
            size: 1
          }
        }
        int_val: 0
      }
    }
  }
}
node {
  name: "Sum_18"
  op: "Sum"
  input: "Square_6"
  input: "Const_10"
  device: "/device:CPU:*"
  attr {
    key: "T"
    value {
      type: DT_FLOAT
    }
  }
  attr {
    key: "Tidx"
    value {
      type: DT_INT32
    }
  }
  attr {
    key: "keep_dims"
    value {
      b: false
    }
  }
}
node {
  name: "sub_10"
  op: "Sub"
  input: "strided_slice_9"
  input: "strided_slice_11"
  device: "/device:CPU:*"
  attr {
    key: "T"
    value {
      type: DT_FLOAT
    }
  }
}
node {
  name: "Square_7"
  op: "Square"
  input: "sub_10"
  device: "/device:CPU:*"
  attr {
    key: "T"
    value {
      type: DT_FLOAT
    }
  }
}
node {
  name: "Const_11"
  op: "Const"
  device: "/device:CPU:*"
  attr {
    key: "dtype"
    value {
      type: DT_INT32
    }
  }
  attr {
    key: "value"
    value {
      tensor {
        dtype: DT_INT32
        tensor_shape {
          dim {
            size: 2
          }
        }
        tensor_content: "\000\000\000\000\001\000\000\000"
      }
    }
  }
}
node {
  name: "Sum_19"
  op: "Sum"
  input: "Square_7"
  input: "Const_11"
  device: "/device:CPU:*"
  attr {
    key: "T"
    value {
      type: DT_FLOAT
    }
  }
  attr {
    key: "Tidx"
    value {
      type: DT_INT32
    }
  }
  attr {
    key: "keep_dims"
    value {
      b: false
    }
  }
}
node {
  name: "sub_11"
  op: "Sub"
  input: "Sum_18"
  input: "Sum_19"
  device: "/device:CPU:*"
  attr {
    key: "T"
    value {
      type: DT_FLOAT
    }
  }
}
node {
  name: "add_10"
  op: "AddV2"
  input: "add_8"
  input: "sub_11"
  device: "/device:CPU:*"
  attr {
    key: "T"
    value {
      type: DT_FLOAT
    }
  }
}
node {
  name: "strided_slice_12/stack"
  op: "Const"
  device: "/device:CPU:*"
  attr {
    key: "dtype"
    value {
      type: DT_INT32
    }
  }
  attr {
    key: "value"
    value {
      tensor {
        dtype: DT_INT32
        tensor_shape {
          dim {
            size: 1
          }
        }
        int_val: 12
      }
    }
  }
}
node {
  name: "strided_slice_12/stack_1"
  op: "Const"
  device: "/device:CPU:*"
  attr {
    key: "dtype"
    value {
      type: DT_INT32
    }
  }
  attr {
    key: "value"
    value {
      tensor {
        dtype: DT_INT32
        tensor_shape {
          dim {
            size: 1
          }
        }
        int_val: 13
      }
    }
  }
}
node {
  name: "strided_slice_12/stack_2"
  op: "Const"
  device: "/device:CPU:*"
  attr {
    key: "dtype"
    value {
      type: DT_INT32
    }
  }
  attr {
    key: "value"
    value {
      tensor {
        dtype: DT_INT32
        tensor_shape {
          dim {
            size: 1
          }
        }
        int_val: 1
      }
    }
  }
}
node {
  name: "strided_slice_12"
  op: "StridedSlice"
  input: "normalize/truediv"
  input: "strided_slice_12/stack"
  input: "strided_slice_12/stack_1"
  input: "strided_slice_12/stack_2"
  device: "/device:CPU:*"
  attr {
    key: "Index"
    value {
      type: DT_INT32
    }
  }
  attr {
    key: "T"
    value {
      type: DT_FLOAT
    }
  }
  attr {
    key: "begin_mask"
    value {
      i: 0
    }
  }
  attr {
    key: "ellipsis_mask"
    value {
      i: 0
    }
  }
  attr {
    key: "end_mask"
    value {
      i: 0
    }
  }
  attr {
    key: "new_axis_mask"
    value {
      i: 0
    }
  }
  attr {
    key: "shrink_axis_mask"
    value {
      i: 1
    }
  }
}
node {
  name: "strided_slice_13/stack"
  op: "Const"
  device: "/device:CPU:*"
  attr {
    key: "dtype"
    value {
      type: DT_INT32
    }
  }
  attr {
    key: "value"
    value {
      tensor {
        dtype: DT_INT32
        tensor_shape {
          dim {
            size: 1
          }
        }
        int_val: 13
      }
    }
  }
}
node {
  name: "strided_slice_13/stack_1"
  op: "Const"
  device: "/device:CPU:*"
  attr {
    key: "dtype"
    value {
      type: DT_INT32
    }
  }
  attr {
    key: "value"
    value {
      tensor {
        dtype: DT_INT32
        tensor_shape {
          dim {
            size: 1
          }
        }
        int_val: 14
      }
    }
  }
}
node {
  name: "strided_slice_13/stack_2"
  op: "Const"
  device: "/device:CPU:*"
  attr {
    key: "dtype"
    value {
      type: DT_INT32
    }
  }
  attr {
    key: "value"
    value {
      tensor {
        dtype: DT_INT32
        tensor_shape {
          dim {
            size: 1
          }
        }
        int_val: 1
      }
    }
  }
}
node {
  name: "strided_slice_13"
  op: "StridedSlice"
  input: "normalize/truediv"
  input: "strided_slice_13/stack"
  input: "strided_slice_13/stack_1"
  input: "strided_slice_13/stack_2"
  device: "/device:CPU:*"
  attr {
    key: "Index"
    value {
      type: DT_INT32
    }
  }
  attr {
    key: "T"
    value {
      type: DT_FLOAT
    }
  }
  attr {
    key: "begin_mask"
    value {
      i: 0
    }
  }
  attr {
    key: "ellipsis_mask"
    value {
      i: 0
    }
  }
  attr {
    key: "end_mask"
    value {
      i: 0
    }
  }
  attr {
    key: "new_axis_mask"
    value {
      i: 0
    }
  }
  attr {
    key: "shrink_axis_mask"
    value {
      i: 1
    }
  }
}
node {
  name: "strided_slice_14/stack"
  op: "Const"
  device: "/device:CPU:*"
  attr {
    key: "dtype"
    value {
      type: DT_INT32
    }
  }
  attr {
    key: "value"
    value {
      tensor {
        dtype: DT_INT32
        tensor_shape {
          dim {
            size: 1
          }
        }
        int_val: 14
      }
    }
  }
}
node {
  name: "strided_slice_14/stack_1"
  op: "Const"
  device: "/device:CPU:*"
  attr {
    key: "dtype"
    value {
      type: DT_INT32
    }
  }
  attr {
    key: "value"
    value {
      tensor {
        dtype: DT_INT32
        tensor_shape {
          dim {
            size: 1
          }
        }
        int_val: 15
      }
    }
  }
}
node {
  name: "strided_slice_14/stack_2"
  op: "Const"
  device: "/device:CPU:*"
  attr {
    key: "dtype"
    value {
      type: DT_INT32
    }
  }
  attr {
    key: "value"
    value {
      tensor {
        dtype: DT_INT32
        tensor_shape {
          dim {
            size: 1
          }
        }
        int_val: 1
      }
    }
  }
}
node {
  name: "strided_slice_14"
  op: "StridedSlice"
  input: "normalize/truediv"
  input: "strided_slice_14/stack"
  input: "strided_slice_14/stack_1"
  input: "strided_slice_14/stack_2"
  device: "/device:CPU:*"
  attr {
    key: "Index"
    value {
      type: DT_INT32
    }
  }
  attr {
    key: "T"
    value {
      type: DT_FLOAT
    }
  }
  attr {
    key: "begin_mask"
    value {
      i: 0
    }
  }
  attr {
    key: "ellipsis_mask"
    value {
      i: 0
    }
  }
  attr {
    key: "end_mask"
    value {
      i: 0
    }
  }
  attr {
    key: "new_axis_mask"
    value {
      i: 0
    }
  }
  attr {
    key: "shrink_axis_mask"
    value {
      i: 0
    }
  }
}
node {
  name: "Mul_8"
  op: "Mul"
  input: "strided_slice_12"
  input: "strided_slice_13"
  device: "/device:CPU:*"
  attr {
    key: "T"
    value {
      type: DT_FLOAT
    }
  }
}
node {
  name: "Mul_9"
  op: "Mul"
  input: "strided_slice_12"
  input: "strided_slice_14"
  device: "/device:CPU:*"
  attr {
    key: "T"
    value {
      type: DT_FLOAT
    }
  }
}
node {
  name: "Sum_20/reduction_indices"
  op: "Const"
  device: "/device:CPU:*"
  attr {
    key: "dtype"
    value {
      type: DT_INT32
    }
  }
  attr {
    key: "value"
    value {
      tensor {
        dtype: DT_INT32
        tensor_shape {
        }
        int_val: -1
      }
    }
  }
}
node {
  name: "Sum_20"
  op: "Sum"
  input: "Mul_8"
  input: "Sum_20/reduction_indices"
  device: "/device:CPU:*"
  attr {
    key: "T"
    value {
      type: DT_FLOAT
    }
  }
  attr {
    key: "Tidx"
    value {
      type: DT_INT32
    }
  }
  attr {
    key: "keep_dims"
    value {
      b: false
    }
  }
}
node {
  name: "Sum_21/reduction_indices"
  op: "Const"
  device: "/device:CPU:*"
  attr {
    key: "dtype"
    value {
      type: DT_INT32
    }
  }
  attr {
    key: "value"
    value {
      tensor {
        dtype: DT_INT32
        tensor_shape {
        }
        int_val: -1
      }
    }
  }
}
node {
  name: "Sum_21"
  op: "Sum"
  input: "Mul_9"
  input: "Sum_21/reduction_indices"
  device: "/device:CPU:*"
  attr {
    key: "T"
    value {
      type: DT_FLOAT
    }
  }
  attr {
    key: "Tidx"
    value {
      type: DT_INT32
    }
  }
  attr {
    key: "keep_dims"
    value {
      b: false
    }
  }
}
node {
  name: "Exp_8"
  op: "Exp"
  input: "Sum_20"
  device: "/device:CPU:*"
  attr {
    key: "T"
    value {
      type: DT_FLOAT
    }
  }
}
node {
  name: "Exp_9"
  op: "Exp"
  input: "Sum_21"
  device: "/device:CPU:*"
  attr {
    key: "T"
    value {
      type: DT_FLOAT
    }
  }
}
node {
  name: "Const_12"
  op: "Const"
  device: "/device:CPU:*"
  attr {
    key: "dtype"
    value {
      type: DT_INT32
    }
  }
  attr {
    key: "value"
    value {
      tensor {
        dtype: DT_INT32
        tensor_shape {
          dim {
            size: 1
          }
        }
        int_val: 0
      }
    }
  }
}
node {
  name: "Sum_22"
  op: "Sum"
  input: "Exp_9"
  input: "Const_12"
  device: "/device:CPU:*"
  attr {
    key: "T"
    value {
      type: DT_FLOAT
    }
  }
  attr {
    key: "Tidx"
    value {
      type: DT_INT32
    }
  }
  attr {
    key: "keep_dims"
    value {
      b: false
    }
  }
}
node {
  name: "add_11"
  op: "AddV2"
  input: "Sum_22"
  input: "Exp_8"
  device: "/device:CPU:*"
  attr {
    key: "T"
    value {
      type: DT_FLOAT
    }
  }
}
node {
  name: "truediv_8"
  op: "RealDiv"
  input: "Exp_8"
  input: "add_11"
  device: "/device:CPU:*"
  attr {
    key: "T"
    value {
      type: DT_FLOAT
    }
  }
}
node {
  name: "Log_4"
  op: "Log"
  input: "truediv_8"
  device: "/device:CPU:*"
  attr {
    key: "T"
    value {
      type: DT_FLOAT
    }
  }
}
node {
  name: "truediv_9/y"
  op: "Const"
  device: "/device:CPU:*"
  attr {
    key: "dtype"
    value {
      type: DT_FLOAT
    }
  }
  attr {
    key: "value"
    value {
      tensor {
        dtype: DT_FLOAT
        tensor_shape {
        }
        float_val: 3.0
      }
    }
  }
}
node {
  name: "truediv_9"
  op: "RealDiv"
  input: "Log_4"
  input: "truediv_9/y"
  device: "/device:CPU:*"
  attr {
    key: "T"
    value {
      type: DT_FLOAT
    }
  }
}
node {
  name: "sub_12"
  op: "Sub"
  input: "strided_slice_12"
  input: "strided_slice_13"
  device: "/device:CPU:*"
  attr {
    key: "T"
    value {
      type: DT_FLOAT
    }
  }
}
node {
  name: "Square_8"
  op: "Square"
  input: "sub_12"
  device: "/device:CPU:*"
  attr {
    key: "T"
    value {
      type: DT_FLOAT
    }
  }
}
node {
  name: "Const_13"
  op: "Const"
  device: "/device:CPU:*"
  attr {
    key: "dtype"
    value {
      type: DT_INT32
    }
  }
  attr {
    key: "value"
    value {
      tensor {
        dtype: DT_INT32
        tensor_shape {
          dim {
            size: 1
          }
        }
        int_val: 0
      }
    }
  }
}
node {
  name: "Sum_23"
  op: "Sum"
  input: "Square_8"
  input: "Const_13"
  device: "/device:CPU:*"
  attr {
    key: "T"
    value {
      type: DT_FLOAT
    }
  }
  attr {
    key: "Tidx"
    value {
      type: DT_INT32
    }
  }
  attr {
    key: "keep_dims"
    value {
      b: false
    }
  }
}
node {
  name: "sub_13"
  op: "Sub"
  input: "strided_slice_12"
  input: "strided_slice_14"
  device: "/device:CPU:*"
  attr {
    key: "T"
    value {
      type: DT_FLOAT
    }
  }
}
node {
  name: "Square_9"
  op: "Square"
  input: "sub_13"
  device: "/device:CPU:*"
  attr {
    key: "T"
    value {
      type: DT_FLOAT
    }
  }
}
node {
  name: "Const_14"
  op: "Const"
  device: "/device:CPU:*"
  attr {
    key: "dtype"
    value {
      type: DT_INT32
    }
  }
  attr {
    key: "value"
    value {
      tensor {
        dtype: DT_INT32
        tensor_shape {
          dim {
            size: 2
          }
        }
        tensor_content: "\000\000\000\000\001\000\000\000"
      }
    }
  }
}
node {
  name: "Sum_24"
  op: "Sum"
  input: "Square_9"
  input: "Const_14"
  device: "/device:CPU:*"
  attr {
    key: "T"
    value {
      type: DT_FLOAT
    }
  }
  attr {
    key: "Tidx"
    value {
      type: DT_INT32
    }
  }
  attr {
    key: "keep_dims"
    value {
      b: false
    }
  }
}
node {
  name: "sub_14"
  op: "Sub"
  input: "Sum_23"
  input: "Sum_24"
  device: "/device:CPU:*"
  attr {
    key: "T"
    value {
      type: DT_FLOAT
    }
  }
}
node {
  name: "add_12"
  op: "AddV2"
  input: "add_10"
  input: "sub_14"
  device: "/device:CPU:*"
  attr {
    key: "T"
    value {
      type: DT_FLOAT
    }
  }
}
node {
  name: "strided_slice_15/stack"
  op: "Const"
  device: "/device:CPU:*"
  attr {
    key: "dtype"
    value {
      type: DT_INT32
    }
  }
  attr {
    key: "value"
    value {
      tensor {
        dtype: DT_INT32
        tensor_shape {
          dim {
            size: 1
          }
        }
        int_val: 15
      }
    }
  }
}
node {
  name: "strided_slice_15/stack_1"
  op: "Const"
  device: "/device:CPU:*"
  attr {
    key: "dtype"
    value {
      type: DT_INT32
    }
  }
  attr {
    key: "value"
    value {
      tensor {
        dtype: DT_INT32
        tensor_shape {
          dim {
            size: 1
          }
        }
        int_val: 16
      }
    }
  }
}
node {
  name: "strided_slice_15/stack_2"
  op: "Const"
  device: "/device:CPU:*"
  attr {
    key: "dtype"
    value {
      type: DT_INT32
    }
  }
  attr {
    key: "value"
    value {
      tensor {
        dtype: DT_INT32
        tensor_shape {
          dim {
            size: 1
          }
        }
        int_val: 1
      }
    }
  }
}
node {
  name: "strided_slice_15"
  op: "StridedSlice"
  input: "normalize/truediv"
  input: "strided_slice_15/stack"
  input: "strided_slice_15/stack_1"
  input: "strided_slice_15/stack_2"
  device: "/device:CPU:*"
  attr {
    key: "Index"
    value {
      type: DT_INT32
    }
  }
  attr {
    key: "T"
    value {
      type: DT_FLOAT
    }
  }
  attr {
    key: "begin_mask"
    value {
      i: 0
    }
  }
  attr {
    key: "ellipsis_mask"
    value {
      i: 0
    }
  }
  attr {
    key: "end_mask"
    value {
      i: 0
    }
  }
  attr {
    key: "new_axis_mask"
    value {
      i: 0
    }
  }
  attr {
    key: "shrink_axis_mask"
    value {
      i: 1
    }
  }
}
node {
  name: "strided_slice_16/stack"
  op: "Const"
  device: "/device:CPU:*"
  attr {
    key: "dtype"
    value {
      type: DT_INT32
    }
  }
  attr {
    key: "value"
    value {
      tensor {
        dtype: DT_INT32
        tensor_shape {
          dim {
            size: 1
          }
        }
        int_val: 16
      }
    }
  }
}
node {
  name: "strided_slice_16/stack_1"
  op: "Const"
  device: "/device:CPU:*"
  attr {
    key: "dtype"
    value {
      type: DT_INT32
    }
  }
  attr {
    key: "value"
    value {
      tensor {
        dtype: DT_INT32
        tensor_shape {
          dim {
            size: 1
          }
        }
        int_val: 17
      }
    }
  }
}
node {
  name: "strided_slice_16/stack_2"
  op: "Const"
  device: "/device:CPU:*"
  attr {
    key: "dtype"
    value {
      type: DT_INT32
    }
  }
  attr {
    key: "value"
    value {
      tensor {
        dtype: DT_INT32
        tensor_shape {
          dim {
            size: 1
          }
        }
        int_val: 1
      }
    }
  }
}
node {
  name: "strided_slice_16"
  op: "StridedSlice"
  input: "normalize/truediv"
  input: "strided_slice_16/stack"
  input: "strided_slice_16/stack_1"
  input: "strided_slice_16/stack_2"
  device: "/device:CPU:*"
  attr {
    key: "Index"
    value {
      type: DT_INT32
    }
  }
  attr {
    key: "T"
    value {
      type: DT_FLOAT
    }
  }
  attr {
    key: "begin_mask"
    value {
      i: 0
    }
  }
  attr {
    key: "ellipsis_mask"
    value {
      i: 0
    }
  }
  attr {
    key: "end_mask"
    value {
      i: 0
    }
  }
  attr {
    key: "new_axis_mask"
    value {
      i: 0
    }
  }
  attr {
    key: "shrink_axis_mask"
    value {
      i: 1
    }
  }
}
node {
  name: "strided_slice_17/stack"
  op: "Const"
  device: "/device:CPU:*"
  attr {
    key: "dtype"
    value {
      type: DT_INT32
    }
  }
  attr {
    key: "value"
    value {
      tensor {
        dtype: DT_INT32
        tensor_shape {
          dim {
            size: 1
          }
        }
        int_val: 17
      }
    }
  }
}
node {
  name: "strided_slice_17/stack_1"
  op: "Const"
  device: "/device:CPU:*"
  attr {
    key: "dtype"
    value {
      type: DT_INT32
    }
  }
  attr {
    key: "value"
    value {
      tensor {
        dtype: DT_INT32
        tensor_shape {
          dim {
            size: 1
          }
        }
        int_val: 18
      }
    }
  }
}
node {
  name: "strided_slice_17/stack_2"
  op: "Const"
  device: "/device:CPU:*"
  attr {
    key: "dtype"
    value {
      type: DT_INT32
    }
  }
  attr {
    key: "value"
    value {
      tensor {
        dtype: DT_INT32
        tensor_shape {
          dim {
            size: 1
          }
        }
        int_val: 1
      }
    }
  }
}
node {
  name: "strided_slice_17"
  op: "StridedSlice"
  input: "normalize/truediv"
  input: "strided_slice_17/stack"
  input: "strided_slice_17/stack_1"
  input: "strided_slice_17/stack_2"
  device: "/device:CPU:*"
  attr {
    key: "Index"
    value {
      type: DT_INT32
    }
  }
  attr {
    key: "T"
    value {
      type: DT_FLOAT
    }
  }
  attr {
    key: "begin_mask"
    value {
      i: 0
    }
  }
  attr {
    key: "ellipsis_mask"
    value {
      i: 0
    }
  }
  attr {
    key: "end_mask"
    value {
      i: 0
    }
  }
  attr {
    key: "new_axis_mask"
    value {
      i: 0
    }
  }
  attr {
    key: "shrink_axis_mask"
    value {
      i: 0
    }
  }
}
node {
  name: "Mul_10"
  op: "Mul"
  input: "strided_slice_15"
  input: "strided_slice_16"
  device: "/device:CPU:*"
  attr {
    key: "T"
    value {
      type: DT_FLOAT
    }
  }
}
node {
  name: "Mul_11"
  op: "Mul"
  input: "strided_slice_15"
  input: "strided_slice_17"
  device: "/device:CPU:*"
  attr {
    key: "T"
    value {
      type: DT_FLOAT
    }
  }
}
node {
  name: "Sum_25/reduction_indices"
  op: "Const"
  device: "/device:CPU:*"
  attr {
    key: "dtype"
    value {
      type: DT_INT32
    }
  }
  attr {
    key: "value"
    value {
      tensor {
        dtype: DT_INT32
        tensor_shape {
        }
        int_val: -1
      }
    }
  }
}
node {
  name: "Sum_25"
  op: "Sum"
  input: "Mul_10"
  input: "Sum_25/reduction_indices"
  device: "/device:CPU:*"
  attr {
    key: "T"
    value {
      type: DT_FLOAT
    }
  }
  attr {
    key: "Tidx"
    value {
      type: DT_INT32
    }
  }
  attr {
    key: "keep_dims"
    value {
      b: false
    }
  }
}
node {
  name: "Sum_26/reduction_indices"
  op: "Const"
  device: "/device:CPU:*"
  attr {
    key: "dtype"
    value {
      type: DT_INT32
    }
  }
  attr {
    key: "value"
    value {
      tensor {
        dtype: DT_INT32
        tensor_shape {
        }
        int_val: -1
      }
    }
  }
}
node {
  name: "Sum_26"
  op: "Sum"
  input: "Mul_11"
  input: "Sum_26/reduction_indices"
  device: "/device:CPU:*"
  attr {
    key: "T"
    value {
      type: DT_FLOAT
    }
  }
  attr {
    key: "Tidx"
    value {
      type: DT_INT32
    }
  }
  attr {
    key: "keep_dims"
    value {
      b: false
    }
  }
}
node {
  name: "Exp_10"
  op: "Exp"
  input: "Sum_25"
  device: "/device:CPU:*"
  attr {
    key: "T"
    value {
      type: DT_FLOAT
    }
  }
}
node {
  name: "Exp_11"
  op: "Exp"
  input: "Sum_26"
  device: "/device:CPU:*"
  attr {
    key: "T"
    value {
      type: DT_FLOAT
    }
  }
}
node {
  name: "Const_15"
  op: "Const"
  device: "/device:CPU:*"
  attr {
    key: "dtype"
    value {
      type: DT_INT32
    }
  }
  attr {
    key: "value"
    value {
      tensor {
        dtype: DT_INT32
        tensor_shape {
          dim {
            size: 1
          }
        }
        int_val: 0
      }
    }
  }
}
node {
  name: "Sum_27"
  op: "Sum"
  input: "Exp_11"
  input: "Const_15"
  device: "/device:CPU:*"
  attr {
    key: "T"
    value {
      type: DT_FLOAT
    }
  }
  attr {
    key: "Tidx"
    value {
      type: DT_INT32
    }
  }
  attr {
    key: "keep_dims"
    value {
      b: false
    }
  }
}
node {
  name: "add_13"
  op: "AddV2"
  input: "Sum_27"
  input: "Exp_10"
  device: "/device:CPU:*"
  attr {
    key: "T"
    value {
      type: DT_FLOAT
    }
  }
}
node {
  name: "truediv_10"
  op: "RealDiv"
  input: "Exp_10"
  input: "add_13"
  device: "/device:CPU:*"
  attr {
    key: "T"
    value {
      type: DT_FLOAT
    }
  }
}
node {
  name: "Log_5"
  op: "Log"
  input: "truediv_10"
  device: "/device:CPU:*"
  attr {
    key: "T"
    value {
      type: DT_FLOAT
    }
  }
}
node {
  name: "truediv_11/y"
  op: "Const"
  device: "/device:CPU:*"
  attr {
    key: "dtype"
    value {
      type: DT_FLOAT
    }
  }
  attr {
    key: "value"
    value {
      tensor {
        dtype: DT_FLOAT
        tensor_shape {
        }
        float_val: 3.0
      }
    }
  }
}
node {
  name: "truediv_11"
  op: "RealDiv"
  input: "Log_5"
  input: "truediv_11/y"
  device: "/device:CPU:*"
  attr {
    key: "T"
    value {
      type: DT_FLOAT
    }
  }
}
node {
  name: "sub_15"
  op: "Sub"
  input: "strided_slice_15"
  input: "strided_slice_16"
  device: "/device:CPU:*"
  attr {
    key: "T"
    value {
      type: DT_FLOAT
    }
  }
}
node {
  name: "Square_10"
  op: "Square"
  input: "sub_15"
  device: "/device:CPU:*"
  attr {
    key: "T"
    value {
      type: DT_FLOAT
    }
  }
}
node {
  name: "Const_16"
  op: "Const"
  device: "/device:CPU:*"
  attr {
    key: "dtype"
    value {
      type: DT_INT32
    }
  }
  attr {
    key: "value"
    value {
      tensor {
        dtype: DT_INT32
        tensor_shape {
          dim {
            size: 1
          }
        }
        int_val: 0
      }
    }
  }
}
node {
  name: "Sum_28"
  op: "Sum"
  input: "Square_10"
  input: "Const_16"
  device: "/device:CPU:*"
  attr {
    key: "T"
    value {
      type: DT_FLOAT
    }
  }
  attr {
    key: "Tidx"
    value {
      type: DT_INT32
    }
  }
  attr {
    key: "keep_dims"
    value {
      b: false
    }
  }
}
node {
  name: "sub_16"
  op: "Sub"
  input: "strided_slice_15"
  input: "strided_slice_17"
  device: "/device:CPU:*"
  attr {
    key: "T"
    value {
      type: DT_FLOAT
    }
  }
}
node {
  name: "Square_11"
  op: "Square"
  input: "sub_16"
  device: "/device:CPU:*"
  attr {
    key: "T"
    value {
      type: DT_FLOAT
    }
  }
}
node {
  name: "Const_17"
  op: "Const"
  device: "/device:CPU:*"
  attr {
    key: "dtype"
    value {
      type: DT_INT32
    }
  }
  attr {
    key: "value"
    value {
      tensor {
        dtype: DT_INT32
        tensor_shape {
          dim {
            size: 2
          }
        }
        tensor_content: "\000\000\000\000\001\000\000\000"
      }
    }
  }
}
node {
  name: "Sum_29"
  op: "Sum"
  input: "Square_11"
  input: "Const_17"
  device: "/device:CPU:*"
  attr {
    key: "T"
    value {
      type: DT_FLOAT
    }
  }
  attr {
    key: "Tidx"
    value {
      type: DT_INT32
    }
  }
  attr {
    key: "keep_dims"
    value {
      b: false
    }
  }
}
node {
  name: "sub_17"
  op: "Sub"
  input: "Sum_28"
  input: "Sum_29"
  device: "/device:CPU:*"
  attr {
    key: "T"
    value {
      type: DT_FLOAT
    }
  }
}
node {
  name: "add_14"
  op: "AddV2"
  input: "add_12"
  input: "sub_17"
  device: "/device:CPU:*"
  attr {
    key: "T"
    value {
      type: DT_FLOAT
    }
  }
}
node {
  name: "strided_slice_18/stack"
  op: "Const"
  device: "/device:CPU:*"
  attr {
    key: "dtype"
    value {
      type: DT_INT32
    }
  }
  attr {
    key: "value"
    value {
      tensor {
        dtype: DT_INT32
        tensor_shape {
          dim {
            size: 1
          }
        }
        int_val: 18
      }
    }
  }
}
node {
  name: "strided_slice_18/stack_1"
  op: "Const"
  device: "/device:CPU:*"
  attr {
    key: "dtype"
    value {
      type: DT_INT32
    }
  }
  attr {
    key: "value"
    value {
      tensor {
        dtype: DT_INT32
        tensor_shape {
          dim {
            size: 1
          }
        }
        int_val: 19
      }
    }
  }
}
node {
  name: "strided_slice_18/stack_2"
  op: "Const"
  device: "/device:CPU:*"
  attr {
    key: "dtype"
    value {
      type: DT_INT32
    }
  }
  attr {
    key: "value"
    value {
      tensor {
        dtype: DT_INT32
        tensor_shape {
          dim {
            size: 1
          }
        }
        int_val: 1
      }
    }
  }
}
node {
  name: "strided_slice_18"
  op: "StridedSlice"
  input: "normalize/truediv"
  input: "strided_slice_18/stack"
  input: "strided_slice_18/stack_1"
  input: "strided_slice_18/stack_2"
  device: "/device:CPU:*"
  attr {
    key: "Index"
    value {
      type: DT_INT32
    }
  }
  attr {
    key: "T"
    value {
      type: DT_FLOAT
    }
  }
  attr {
    key: "begin_mask"
    value {
      i: 0
    }
  }
  attr {
    key: "ellipsis_mask"
    value {
      i: 0
    }
  }
  attr {
    key: "end_mask"
    value {
      i: 0
    }
  }
  attr {
    key: "new_axis_mask"
    value {
      i: 0
    }
  }
  attr {
    key: "shrink_axis_mask"
    value {
      i: 1
    }
  }
}
node {
  name: "strided_slice_19/stack"
  op: "Const"
  device: "/device:CPU:*"
  attr {
    key: "dtype"
    value {
      type: DT_INT32
    }
  }
  attr {
    key: "value"
    value {
      tensor {
        dtype: DT_INT32
        tensor_shape {
          dim {
            size: 1
          }
        }
        int_val: 19
      }
    }
  }
}
node {
  name: "strided_slice_19/stack_1"
  op: "Const"
  device: "/device:CPU:*"
  attr {
    key: "dtype"
    value {
      type: DT_INT32
    }
  }
  attr {
    key: "value"
    value {
      tensor {
        dtype: DT_INT32
        tensor_shape {
          dim {
            size: 1
          }
        }
        int_val: 20
      }
    }
  }
}
node {
  name: "strided_slice_19/stack_2"
  op: "Const"
  device: "/device:CPU:*"
  attr {
    key: "dtype"
    value {
      type: DT_INT32
    }
  }
  attr {
    key: "value"
    value {
      tensor {
        dtype: DT_INT32
        tensor_shape {
          dim {
            size: 1
          }
        }
        int_val: 1
      }
    }
  }
}
node {
  name: "strided_slice_19"
  op: "StridedSlice"
  input: "normalize/truediv"
  input: "strided_slice_19/stack"
  input: "strided_slice_19/stack_1"
  input: "strided_slice_19/stack_2"
  device: "/device:CPU:*"
  attr {
    key: "Index"
    value {
      type: DT_INT32
    }
  }
  attr {
    key: "T"
    value {
      type: DT_FLOAT
    }
  }
  attr {
    key: "begin_mask"
    value {
      i: 0
    }
  }
  attr {
    key: "ellipsis_mask"
    value {
      i: 0
    }
  }
  attr {
    key: "end_mask"
    value {
      i: 0
    }
  }
  attr {
    key: "new_axis_mask"
    value {
      i: 0
    }
  }
  attr {
    key: "shrink_axis_mask"
    value {
      i: 1
    }
  }
}
node {
  name: "strided_slice_20/stack"
  op: "Const"
  device: "/device:CPU:*"
  attr {
    key: "dtype"
    value {
      type: DT_INT32
    }
  }
  attr {
    key: "value"
    value {
      tensor {
        dtype: DT_INT32
        tensor_shape {
          dim {
            size: 1
          }
        }
        int_val: 20
      }
    }
  }
}
node {
  name: "strided_slice_20/stack_1"
  op: "Const"
  device: "/device:CPU:*"
  attr {
    key: "dtype"
    value {
      type: DT_INT32
    }
  }
  attr {
    key: "value"
    value {
      tensor {
        dtype: DT_INT32
        tensor_shape {
          dim {
            size: 1
          }
        }
        int_val: 21
      }
    }
  }
}
node {
  name: "strided_slice_20/stack_2"
  op: "Const"
  device: "/device:CPU:*"
  attr {
    key: "dtype"
    value {
      type: DT_INT32
    }
  }
  attr {
    key: "value"
    value {
      tensor {
        dtype: DT_INT32
        tensor_shape {
          dim {
            size: 1
          }
        }
        int_val: 1
      }
    }
  }
}
node {
  name: "strided_slice_20"
  op: "StridedSlice"
  input: "normalize/truediv"
  input: "strided_slice_20/stack"
  input: "strided_slice_20/stack_1"
  input: "strided_slice_20/stack_2"
  device: "/device:CPU:*"
  attr {
    key: "Index"
    value {
      type: DT_INT32
    }
  }
  attr {
    key: "T"
    value {
      type: DT_FLOAT
    }
  }
  attr {
    key: "begin_mask"
    value {
      i: 0
    }
  }
  attr {
    key: "ellipsis_mask"
    value {
      i: 0
    }
  }
  attr {
    key: "end_mask"
    value {
      i: 0
    }
  }
  attr {
    key: "new_axis_mask"
    value {
      i: 0
    }
  }
  attr {
    key: "shrink_axis_mask"
    value {
      i: 0
    }
  }
}
node {
  name: "Mul_12"
  op: "Mul"
  input: "strided_slice_18"
  input: "strided_slice_19"
  device: "/device:CPU:*"
  attr {
    key: "T"
    value {
      type: DT_FLOAT
    }
  }
}
node {
  name: "Mul_13"
  op: "Mul"
  input: "strided_slice_18"
  input: "strided_slice_20"
  device: "/device:CPU:*"
  attr {
    key: "T"
    value {
      type: DT_FLOAT
    }
  }
}
node {
  name: "Sum_30/reduction_indices"
  op: "Const"
  device: "/device:CPU:*"
  attr {
    key: "dtype"
    value {
      type: DT_INT32
    }
  }
  attr {
    key: "value"
    value {
      tensor {
        dtype: DT_INT32
        tensor_shape {
        }
        int_val: -1
      }
    }
  }
}
node {
  name: "Sum_30"
  op: "Sum"
  input: "Mul_12"
  input: "Sum_30/reduction_indices"
  device: "/device:CPU:*"
  attr {
    key: "T"
    value {
      type: DT_FLOAT
    }
  }
  attr {
    key: "Tidx"
    value {
      type: DT_INT32
    }
  }
  attr {
    key: "keep_dims"
    value {
      b: false
    }
  }
}
node {
  name: "Sum_31/reduction_indices"
  op: "Const"
  device: "/device:CPU:*"
  attr {
    key: "dtype"
    value {
      type: DT_INT32
    }
  }
  attr {
    key: "value"
    value {
      tensor {
        dtype: DT_INT32
        tensor_shape {
        }
        int_val: -1
      }
    }
  }
}
node {
  name: "Sum_31"
  op: "Sum"
  input: "Mul_13"
  input: "Sum_31/reduction_indices"
  device: "/device:CPU:*"
  attr {
    key: "T"
    value {
      type: DT_FLOAT
    }
  }
  attr {
    key: "Tidx"
    value {
      type: DT_INT32
    }
  }
  attr {
    key: "keep_dims"
    value {
      b: false
    }
  }
}
node {
  name: "Exp_12"
  op: "Exp"
  input: "Sum_30"
  device: "/device:CPU:*"
  attr {
    key: "T"
    value {
      type: DT_FLOAT
    }
  }
}
node {
  name: "Exp_13"
  op: "Exp"
  input: "Sum_31"
  device: "/device:CPU:*"
  attr {
    key: "T"
    value {
      type: DT_FLOAT
    }
  }
}
node {
  name: "Const_18"
  op: "Const"
  device: "/device:CPU:*"
  attr {
    key: "dtype"
    value {
      type: DT_INT32
    }
  }
  attr {
    key: "value"
    value {
      tensor {
        dtype: DT_INT32
        tensor_shape {
          dim {
            size: 1
          }
        }
        int_val: 0
      }
    }
  }
}
node {
  name: "Sum_32"
  op: "Sum"
  input: "Exp_13"
  input: "Const_18"
  device: "/device:CPU:*"
  attr {
    key: "T"
    value {
      type: DT_FLOAT
    }
  }
  attr {
    key: "Tidx"
    value {
      type: DT_INT32
    }
  }
  attr {
    key: "keep_dims"
    value {
      b: false
    }
  }
}
node {
  name: "add_15"
  op: "AddV2"
  input: "Sum_32"
  input: "Exp_12"
  device: "/device:CPU:*"
  attr {
    key: "T"
    value {
      type: DT_FLOAT
    }
  }
}
node {
  name: "truediv_12"
  op: "RealDiv"
  input: "Exp_12"
  input: "add_15"
  device: "/device:CPU:*"
  attr {
    key: "T"
    value {
      type: DT_FLOAT
    }
  }
}
node {
  name: "Log_6"
  op: "Log"
  input: "truediv_12"
  device: "/device:CPU:*"
  attr {
    key: "T"
    value {
      type: DT_FLOAT
    }
  }
}
node {
  name: "truediv_13/y"
  op: "Const"
  device: "/device:CPU:*"
  attr {
    key: "dtype"
    value {
      type: DT_FLOAT
    }
  }
  attr {
    key: "value"
    value {
      tensor {
        dtype: DT_FLOAT
        tensor_shape {
        }
        float_val: 3.0
      }
    }
  }
}
node {
  name: "truediv_13"
  op: "RealDiv"
  input: "Log_6"
  input: "truediv_13/y"
  device: "/device:CPU:*"
  attr {
    key: "T"
    value {
      type: DT_FLOAT
    }
  }
}
node {
  name: "sub_18"
  op: "Sub"
  input: "strided_slice_18"
  input: "strided_slice_19"
  device: "/device:CPU:*"
  attr {
    key: "T"
    value {
      type: DT_FLOAT
    }
  }
}
node {
  name: "Square_12"
  op: "Square"
  input: "sub_18"
  device: "/device:CPU:*"
  attr {
    key: "T"
    value {
      type: DT_FLOAT
    }
  }
}
node {
  name: "Const_19"
  op: "Const"
  device: "/device:CPU:*"
  attr {
    key: "dtype"
    value {
      type: DT_INT32
    }
  }
  attr {
    key: "value"
    value {
      tensor {
        dtype: DT_INT32
        tensor_shape {
          dim {
            size: 1
          }
        }
        int_val: 0
      }
    }
  }
}
node {
  name: "Sum_33"
  op: "Sum"
  input: "Square_12"
  input: "Const_19"
  device: "/device:CPU:*"
  attr {
    key: "T"
    value {
      type: DT_FLOAT
    }
  }
  attr {
    key: "Tidx"
    value {
      type: DT_INT32
    }
  }
  attr {
    key: "keep_dims"
    value {
      b: false
    }
  }
}
node {
  name: "sub_19"
  op: "Sub"
  input: "strided_slice_18"
  input: "strided_slice_20"
  device: "/device:CPU:*"
  attr {
    key: "T"
    value {
      type: DT_FLOAT
    }
  }
}
node {
  name: "Square_13"
  op: "Square"
  input: "sub_19"
  device: "/device:CPU:*"
  attr {
    key: "T"
    value {
      type: DT_FLOAT
    }
  }
}
node {
  name: "Const_20"
  op: "Const"
  device: "/device:CPU:*"
  attr {
    key: "dtype"
    value {
      type: DT_INT32
    }
  }
  attr {
    key: "value"
    value {
      tensor {
        dtype: DT_INT32
        tensor_shape {
          dim {
            size: 2
          }
        }
        tensor_content: "\000\000\000\000\001\000\000\000"
      }
    }
  }
}
node {
  name: "Sum_34"
  op: "Sum"
  input: "Square_13"
  input: "Const_20"
  device: "/device:CPU:*"
  attr {
    key: "T"
    value {
      type: DT_FLOAT
    }
  }
  attr {
    key: "Tidx"
    value {
      type: DT_INT32
    }
  }
  attr {
    key: "keep_dims"
    value {
      b: false
    }
  }
}
node {
  name: "sub_20"
  op: "Sub"
  input: "Sum_33"
  input: "Sum_34"
  device: "/device:CPU:*"
  attr {
    key: "T"
    value {
      type: DT_FLOAT
    }
  }
}
node {
  name: "add_16"
  op: "AddV2"
  input: "add_14"
  input: "sub_20"
  device: "/device:CPU:*"
  attr {
    key: "T"
    value {
      type: DT_FLOAT
    }
  }
}
node {
  name: "strided_slice_21/stack"
  op: "Const"
  device: "/device:CPU:*"
  attr {
    key: "dtype"
    value {
      type: DT_INT32
    }
  }
  attr {
    key: "value"
    value {
      tensor {
        dtype: DT_INT32
        tensor_shape {
          dim {
            size: 1
          }
        }
        int_val: 21
      }
    }
  }
}
node {
  name: "strided_slice_21/stack_1"
  op: "Const"
  device: "/device:CPU:*"
  attr {
    key: "dtype"
    value {
      type: DT_INT32
    }
  }
  attr {
    key: "value"
    value {
      tensor {
        dtype: DT_INT32
        tensor_shape {
          dim {
            size: 1
          }
        }
        int_val: 22
      }
    }
  }
}
node {
  name: "strided_slice_21/stack_2"
  op: "Const"
  device: "/device:CPU:*"
  attr {
    key: "dtype"
    value {
      type: DT_INT32
    }
  }
  attr {
    key: "value"
    value {
      tensor {
        dtype: DT_INT32
        tensor_shape {
          dim {
            size: 1
          }
        }
        int_val: 1
      }
    }
  }
}
node {
  name: "strided_slice_21"
  op: "StridedSlice"
  input: "normalize/truediv"
  input: "strided_slice_21/stack"
  input: "strided_slice_21/stack_1"
  input: "strided_slice_21/stack_2"
  device: "/device:CPU:*"
  attr {
    key: "Index"
    value {
      type: DT_INT32
    }
  }
  attr {
    key: "T"
    value {
      type: DT_FLOAT
    }
  }
  attr {
    key: "begin_mask"
    value {
      i: 0
    }
  }
  attr {
    key: "ellipsis_mask"
    value {
      i: 0
    }
  }
  attr {
    key: "end_mask"
    value {
      i: 0
    }
  }
  attr {
    key: "new_axis_mask"
    value {
      i: 0
    }
  }
  attr {
    key: "shrink_axis_mask"
    value {
      i: 1
    }
  }
}
node {
  name: "strided_slice_22/stack"
  op: "Const"
  device: "/device:CPU:*"
  attr {
    key: "dtype"
    value {
      type: DT_INT32
    }
  }
  attr {
    key: "value"
    value {
      tensor {
        dtype: DT_INT32
        tensor_shape {
          dim {
            size: 1
          }
        }
        int_val: 22
      }
    }
  }
}
node {
  name: "strided_slice_22/stack_1"
  op: "Const"
  device: "/device:CPU:*"
  attr {
    key: "dtype"
    value {
      type: DT_INT32
    }
  }
  attr {
    key: "value"
    value {
      tensor {
        dtype: DT_INT32
        tensor_shape {
          dim {
            size: 1
          }
        }
        int_val: 23
      }
    }
  }
}
node {
  name: "strided_slice_22/stack_2"
  op: "Const"
  device: "/device:CPU:*"
  attr {
    key: "dtype"
    value {
      type: DT_INT32
    }
  }
  attr {
    key: "value"
    value {
      tensor {
        dtype: DT_INT32
        tensor_shape {
          dim {
            size: 1
          }
        }
        int_val: 1
      }
    }
  }
}
node {
  name: "strided_slice_22"
  op: "StridedSlice"
  input: "normalize/truediv"
  input: "strided_slice_22/stack"
  input: "strided_slice_22/stack_1"
  input: "strided_slice_22/stack_2"
  device: "/device:CPU:*"
  attr {
    key: "Index"
    value {
      type: DT_INT32
    }
  }
  attr {
    key: "T"
    value {
      type: DT_FLOAT
    }
  }
  attr {
    key: "begin_mask"
    value {
      i: 0
    }
  }
  attr {
    key: "ellipsis_mask"
    value {
      i: 0
    }
  }
  attr {
    key: "end_mask"
    value {
      i: 0
    }
  }
  attr {
    key: "new_axis_mask"
    value {
      i: 0
    }
  }
  attr {
    key: "shrink_axis_mask"
    value {
      i: 1
    }
  }
}
node {
  name: "strided_slice_23/stack"
  op: "Const"
  device: "/device:CPU:*"
  attr {
    key: "dtype"
    value {
      type: DT_INT32
    }
  }
  attr {
    key: "value"
    value {
      tensor {
        dtype: DT_INT32
        tensor_shape {
          dim {
            size: 1
          }
        }
        int_val: 23
      }
    }
  }
}
node {
  name: "strided_slice_23/stack_1"
  op: "Const"
  device: "/device:CPU:*"
  attr {
    key: "dtype"
    value {
      type: DT_INT32
    }
  }
  attr {
    key: "value"
    value {
      tensor {
        dtype: DT_INT32
        tensor_shape {
          dim {
            size: 1
          }
        }
        int_val: 24
      }
    }
  }
}
node {
  name: "strided_slice_23/stack_2"
  op: "Const"
  device: "/device:CPU:*"
  attr {
    key: "dtype"
    value {
      type: DT_INT32
    }
  }
  attr {
    key: "value"
    value {
      tensor {
        dtype: DT_INT32
        tensor_shape {
          dim {
            size: 1
          }
        }
        int_val: 1
      }
    }
  }
}
node {
  name: "strided_slice_23"
  op: "StridedSlice"
  input: "normalize/truediv"
  input: "strided_slice_23/stack"
  input: "strided_slice_23/stack_1"
  input: "strided_slice_23/stack_2"
  device: "/device:CPU:*"
  attr {
    key: "Index"
    value {
      type: DT_INT32
    }
  }
  attr {
    key: "T"
    value {
      type: DT_FLOAT
    }
  }
  attr {
    key: "begin_mask"
    value {
      i: 0
    }
  }
  attr {
    key: "ellipsis_mask"
    value {
      i: 0
    }
  }
  attr {
    key: "end_mask"
    value {
      i: 0
    }
  }
  attr {
    key: "new_axis_mask"
    value {
      i: 0
    }
  }
  attr {
    key: "shrink_axis_mask"
    value {
      i: 0
    }
  }
}
node {
  name: "Mul_14"
  op: "Mul"
  input: "strided_slice_21"
  input: "strided_slice_22"
  device: "/device:CPU:*"
  attr {
    key: "T"
    value {
      type: DT_FLOAT
    }
  }
}
node {
  name: "Mul_15"
  op: "Mul"
  input: "strided_slice_21"
  input: "strided_slice_23"
  device: "/device:CPU:*"
  attr {
    key: "T"
    value {
      type: DT_FLOAT
    }
  }
}
node {
  name: "Sum_35/reduction_indices"
  op: "Const"
  device: "/device:CPU:*"
  attr {
    key: "dtype"
    value {
      type: DT_INT32
    }
  }
  attr {
    key: "value"
    value {
      tensor {
        dtype: DT_INT32
        tensor_shape {
        }
        int_val: -1
      }
    }
  }
}
node {
  name: "Sum_35"
  op: "Sum"
  input: "Mul_14"
  input: "Sum_35/reduction_indices"
  device: "/device:CPU:*"
  attr {
    key: "T"
    value {
      type: DT_FLOAT
    }
  }
  attr {
    key: "Tidx"
    value {
      type: DT_INT32
    }
  }
  attr {
    key: "keep_dims"
    value {
      b: false
    }
  }
}
node {
  name: "Sum_36/reduction_indices"
  op: "Const"
  device: "/device:CPU:*"
  attr {
    key: "dtype"
    value {
      type: DT_INT32
    }
  }
  attr {
    key: "value"
    value {
      tensor {
        dtype: DT_INT32
        tensor_shape {
        }
        int_val: -1
      }
    }
  }
}
node {
  name: "Sum_36"
  op: "Sum"
  input: "Mul_15"
  input: "Sum_36/reduction_indices"
  device: "/device:CPU:*"
  attr {
    key: "T"
    value {
      type: DT_FLOAT
    }
  }
  attr {
    key: "Tidx"
    value {
      type: DT_INT32
    }
  }
  attr {
    key: "keep_dims"
    value {
      b: false
    }
  }
}
node {
  name: "Exp_14"
  op: "Exp"
  input: "Sum_35"
  device: "/device:CPU:*"
  attr {
    key: "T"
    value {
      type: DT_FLOAT
    }
  }
}
node {
  name: "Exp_15"
  op: "Exp"
  input: "Sum_36"
  device: "/device:CPU:*"
  attr {
    key: "T"
    value {
      type: DT_FLOAT
    }
  }
}
node {
  name: "Const_21"
  op: "Const"
  device: "/device:CPU:*"
  attr {
    key: "dtype"
    value {
      type: DT_INT32
    }
  }
  attr {
    key: "value"
    value {
      tensor {
        dtype: DT_INT32
        tensor_shape {
          dim {
            size: 1
          }
        }
        int_val: 0
      }
    }
  }
}
node {
  name: "Sum_37"
  op: "Sum"
  input: "Exp_15"
  input: "Const_21"
  device: "/device:CPU:*"
  attr {
    key: "T"
    value {
      type: DT_FLOAT
    }
  }
  attr {
    key: "Tidx"
    value {
      type: DT_INT32
    }
  }
  attr {
    key: "keep_dims"
    value {
      b: false
    }
  }
}
node {
  name: "add_17"
  op: "AddV2"
  input: "Sum_37"
  input: "Exp_14"
  device: "/device:CPU:*"
  attr {
    key: "T"
    value {
      type: DT_FLOAT
    }
  }
}
node {
  name: "truediv_14"
  op: "RealDiv"
  input: "Exp_14"
  input: "add_17"
  device: "/device:CPU:*"
  attr {
    key: "T"
    value {
      type: DT_FLOAT
    }
  }
}
node {
  name: "Log_7"
  op: "Log"
  input: "truediv_14"
  device: "/device:CPU:*"
  attr {
    key: "T"
    value {
      type: DT_FLOAT
    }
  }
}
node {
  name: "truediv_15/y"
  op: "Const"
  device: "/device:CPU:*"
  attr {
    key: "dtype"
    value {
      type: DT_FLOAT
    }
  }
  attr {
    key: "value"
    value {
      tensor {
        dtype: DT_FLOAT
        tensor_shape {
        }
        float_val: 3.0
      }
    }
  }
}
node {
  name: "truediv_15"
  op: "RealDiv"
  input: "Log_7"
  input: "truediv_15/y"
  device: "/device:CPU:*"
  attr {
    key: "T"
    value {
      type: DT_FLOAT
    }
  }
}
node {
  name: "sub_21"
  op: "Sub"
  input: "strided_slice_21"
  input: "strided_slice_22"
  device: "/device:CPU:*"
  attr {
    key: "T"
    value {
      type: DT_FLOAT
    }
  }
}
node {
  name: "Square_14"
  op: "Square"
  input: "sub_21"
  device: "/device:CPU:*"
  attr {
    key: "T"
    value {
      type: DT_FLOAT
    }
  }
}
node {
  name: "Const_22"
  op: "Const"
  device: "/device:CPU:*"
  attr {
    key: "dtype"
    value {
      type: DT_INT32
    }
  }
  attr {
    key: "value"
    value {
      tensor {
        dtype: DT_INT32
        tensor_shape {
          dim {
            size: 1
          }
        }
        int_val: 0
      }
    }
  }
}
node {
  name: "Sum_38"
  op: "Sum"
  input: "Square_14"
  input: "Const_22"
  device: "/device:CPU:*"
  attr {
    key: "T"
    value {
      type: DT_FLOAT
    }
  }
  attr {
    key: "Tidx"
    value {
      type: DT_INT32
    }
  }
  attr {
    key: "keep_dims"
    value {
      b: false
    }
  }
}
node {
  name: "sub_22"
  op: "Sub"
  input: "strided_slice_21"
  input: "strided_slice_23"
  device: "/device:CPU:*"
  attr {
    key: "T"
    value {
      type: DT_FLOAT
    }
  }
}
node {
  name: "Square_15"
  op: "Square"
  input: "sub_22"
  device: "/device:CPU:*"
  attr {
    key: "T"
    value {
      type: DT_FLOAT
    }
  }
}
node {
  name: "Const_23"
  op: "Const"
  device: "/device:CPU:*"
  attr {
    key: "dtype"
    value {
      type: DT_INT32
    }
  }
  attr {
    key: "value"
    value {
      tensor {
        dtype: DT_INT32
        tensor_shape {
          dim {
            size: 2
          }
        }
        tensor_content: "\000\000\000\000\001\000\000\000"
      }
    }
  }
}
node {
  name: "Sum_39"
  op: "Sum"
  input: "Square_15"
  input: "Const_23"
  device: "/device:CPU:*"
  attr {
    key: "T"
    value {
      type: DT_FLOAT
    }
  }
  attr {
    key: "Tidx"
    value {
      type: DT_INT32
    }
  }
  attr {
    key: "keep_dims"
    value {
      b: false
    }
  }
}
node {
  name: "sub_23"
  op: "Sub"
  input: "Sum_38"
  input: "Sum_39"
  device: "/device:CPU:*"
  attr {
    key: "T"
    value {
      type: DT_FLOAT
    }
  }
}
node {
  name: "add_18"
  op: "AddV2"
  input: "add_16"
  input: "sub_23"
  device: "/device:CPU:*"
  attr {
    key: "T"
    value {
      type: DT_FLOAT
    }
  }
}
node {
  name: "strided_slice_24/stack"
  op: "Const"
  device: "/device:CPU:*"
  attr {
    key: "dtype"
    value {
      type: DT_INT32
    }
  }
  attr {
    key: "value"
    value {
      tensor {
        dtype: DT_INT32
        tensor_shape {
          dim {
            size: 1
          }
        }
        int_val: 24
      }
    }
  }
}
node {
  name: "strided_slice_24/stack_1"
  op: "Const"
  device: "/device:CPU:*"
  attr {
    key: "dtype"
    value {
      type: DT_INT32
    }
  }
  attr {
    key: "value"
    value {
      tensor {
        dtype: DT_INT32
        tensor_shape {
          dim {
            size: 1
          }
        }
        int_val: 25
      }
    }
  }
}
node {
  name: "strided_slice_24/stack_2"
  op: "Const"
  device: "/device:CPU:*"
  attr {
    key: "dtype"
    value {
      type: DT_INT32
    }
  }
  attr {
    key: "value"
    value {
      tensor {
        dtype: DT_INT32
        tensor_shape {
          dim {
            size: 1
          }
        }
        int_val: 1
      }
    }
  }
}
node {
  name: "strided_slice_24"
  op: "StridedSlice"
  input: "normalize/truediv"
  input: "strided_slice_24/stack"
  input: "strided_slice_24/stack_1"
  input: "strided_slice_24/stack_2"
  device: "/device:CPU:*"
  attr {
    key: "Index"
    value {
      type: DT_INT32
    }
  }
  attr {
    key: "T"
    value {
      type: DT_FLOAT
    }
  }
  attr {
    key: "begin_mask"
    value {
      i: 0
    }
  }
  attr {
    key: "ellipsis_mask"
    value {
      i: 0
    }
  }
  attr {
    key: "end_mask"
    value {
      i: 0
    }
  }
  attr {
    key: "new_axis_mask"
    value {
      i: 0
    }
  }
  attr {
    key: "shrink_axis_mask"
    value {
      i: 1
    }
  }
}
node {
  name: "strided_slice_25/stack"
  op: "Const"
  device: "/device:CPU:*"
  attr {
    key: "dtype"
    value {
      type: DT_INT32
    }
  }
  attr {
    key: "value"
    value {
      tensor {
        dtype: DT_INT32
        tensor_shape {
          dim {
            size: 1
          }
        }
        int_val: 25
      }
    }
  }
}
node {
  name: "strided_slice_25/stack_1"
  op: "Const"
  device: "/device:CPU:*"
  attr {
    key: "dtype"
    value {
      type: DT_INT32
    }
  }
  attr {
    key: "value"
    value {
      tensor {
        dtype: DT_INT32
        tensor_shape {
          dim {
            size: 1
          }
        }
        int_val: 26
      }
    }
  }
}
node {
  name: "strided_slice_25/stack_2"
  op: "Const"
  device: "/device:CPU:*"
  attr {
    key: "dtype"
    value {
      type: DT_INT32
    }
  }
  attr {
    key: "value"
    value {
      tensor {
        dtype: DT_INT32
        tensor_shape {
          dim {
            size: 1
          }
        }
        int_val: 1
      }
    }
  }
}
node {
  name: "strided_slice_25"
  op: "StridedSlice"
  input: "normalize/truediv"
  input: "strided_slice_25/stack"
  input: "strided_slice_25/stack_1"
  input: "strided_slice_25/stack_2"
  device: "/device:CPU:*"
  attr {
    key: "Index"
    value {
      type: DT_INT32
    }
  }
  attr {
    key: "T"
    value {
      type: DT_FLOAT
    }
  }
  attr {
    key: "begin_mask"
    value {
      i: 0
    }
  }
  attr {
    key: "ellipsis_mask"
    value {
      i: 0
    }
  }
  attr {
    key: "end_mask"
    value {
      i: 0
    }
  }
  attr {
    key: "new_axis_mask"
    value {
      i: 0
    }
  }
  attr {
    key: "shrink_axis_mask"
    value {
      i: 1
    }
  }
}
node {
  name: "strided_slice_26/stack"
  op: "Const"
  device: "/device:CPU:*"
  attr {
    key: "dtype"
    value {
      type: DT_INT32
    }
  }
  attr {
    key: "value"
    value {
      tensor {
        dtype: DT_INT32
        tensor_shape {
          dim {
            size: 1
          }
        }
        int_val: 26
      }
    }
  }
}
node {
  name: "strided_slice_26/stack_1"
  op: "Const"
  device: "/device:CPU:*"
  attr {
    key: "dtype"
    value {
      type: DT_INT32
    }
  }
  attr {
    key: "value"
    value {
      tensor {
        dtype: DT_INT32
        tensor_shape {
          dim {
            size: 1
          }
        }
        int_val: 27
      }
    }
  }
}
node {
  name: "strided_slice_26/stack_2"
  op: "Const"
  device: "/device:CPU:*"
  attr {
    key: "dtype"
    value {
      type: DT_INT32
    }
  }
  attr {
    key: "value"
    value {
      tensor {
        dtype: DT_INT32
        tensor_shape {
          dim {
            size: 1
          }
        }
        int_val: 1
      }
    }
  }
}
node {
  name: "strided_slice_26"
  op: "StridedSlice"
  input: "normalize/truediv"
  input: "strided_slice_26/stack"
  input: "strided_slice_26/stack_1"
  input: "strided_slice_26/stack_2"
  device: "/device:CPU:*"
  attr {
    key: "Index"
    value {
      type: DT_INT32
    }
  }
  attr {
    key: "T"
    value {
      type: DT_FLOAT
    }
  }
  attr {
    key: "begin_mask"
    value {
      i: 0
    }
  }
  attr {
    key: "ellipsis_mask"
    value {
      i: 0
    }
  }
  attr {
    key: "end_mask"
    value {
      i: 0
    }
  }
  attr {
    key: "new_axis_mask"
    value {
      i: 0
    }
  }
  attr {
    key: "shrink_axis_mask"
    value {
      i: 0
    }
  }
}
node {
  name: "Mul_16"
  op: "Mul"
  input: "strided_slice_24"
  input: "strided_slice_25"
  device: "/device:CPU:*"
  attr {
    key: "T"
    value {
      type: DT_FLOAT
    }
  }
}
node {
  name: "Mul_17"
  op: "Mul"
  input: "strided_slice_24"
  input: "strided_slice_26"
  device: "/device:CPU:*"
  attr {
    key: "T"
    value {
      type: DT_FLOAT
    }
  }
}
node {
  name: "Sum_40/reduction_indices"
  op: "Const"
  device: "/device:CPU:*"
  attr {
    key: "dtype"
    value {
      type: DT_INT32
    }
  }
  attr {
    key: "value"
    value {
      tensor {
        dtype: DT_INT32
        tensor_shape {
        }
        int_val: -1
      }
    }
  }
}
node {
  name: "Sum_40"
  op: "Sum"
  input: "Mul_16"
  input: "Sum_40/reduction_indices"
  device: "/device:CPU:*"
  attr {
    key: "T"
    value {
      type: DT_FLOAT
    }
  }
  attr {
    key: "Tidx"
    value {
      type: DT_INT32
    }
  }
  attr {
    key: "keep_dims"
    value {
      b: false
    }
  }
}
node {
  name: "Sum_41/reduction_indices"
  op: "Const"
  device: "/device:CPU:*"
  attr {
    key: "dtype"
    value {
      type: DT_INT32
    }
  }
  attr {
    key: "value"
    value {
      tensor {
        dtype: DT_INT32
        tensor_shape {
        }
        int_val: -1
      }
    }
  }
}
node {
  name: "Sum_41"
  op: "Sum"
  input: "Mul_17"
  input: "Sum_41/reduction_indices"
  device: "/device:CPU:*"
  attr {
    key: "T"
    value {
      type: DT_FLOAT
    }
  }
  attr {
    key: "Tidx"
    value {
      type: DT_INT32
    }
  }
  attr {
    key: "keep_dims"
    value {
      b: false
    }
  }
}
node {
  name: "Exp_16"
  op: "Exp"
  input: "Sum_40"
  device: "/device:CPU:*"
  attr {
    key: "T"
    value {
      type: DT_FLOAT
    }
  }
}
node {
  name: "Exp_17"
  op: "Exp"
  input: "Sum_41"
  device: "/device:CPU:*"
  attr {
    key: "T"
    value {
      type: DT_FLOAT
    }
  }
}
node {
  name: "Const_24"
  op: "Const"
  device: "/device:CPU:*"
  attr {
    key: "dtype"
    value {
      type: DT_INT32
    }
  }
  attr {
    key: "value"
    value {
      tensor {
        dtype: DT_INT32
        tensor_shape {
          dim {
            size: 1
          }
        }
        int_val: 0
      }
    }
  }
}
node {
  name: "Sum_42"
  op: "Sum"
  input: "Exp_17"
  input: "Const_24"
  device: "/device:CPU:*"
  attr {
    key: "T"
    value {
      type: DT_FLOAT
    }
  }
  attr {
    key: "Tidx"
    value {
      type: DT_INT32
    }
  }
  attr {
    key: "keep_dims"
    value {
      b: false
    }
  }
}
node {
  name: "add_19"
  op: "AddV2"
  input: "Sum_42"
  input: "Exp_16"
  device: "/device:CPU:*"
  attr {
    key: "T"
    value {
      type: DT_FLOAT
    }
  }
}
node {
  name: "truediv_16"
  op: "RealDiv"
  input: "Exp_16"
  input: "add_19"
  device: "/device:CPU:*"
  attr {
    key: "T"
    value {
      type: DT_FLOAT
    }
  }
}
node {
  name: "Log_8"
  op: "Log"
  input: "truediv_16"
  device: "/device:CPU:*"
  attr {
    key: "T"
    value {
      type: DT_FLOAT
    }
  }
}
node {
  name: "truediv_17/y"
  op: "Const"
  device: "/device:CPU:*"
  attr {
    key: "dtype"
    value {
      type: DT_FLOAT
    }
  }
  attr {
    key: "value"
    value {
      tensor {
        dtype: DT_FLOAT
        tensor_shape {
        }
        float_val: 3.0
      }
    }
  }
}
node {
  name: "truediv_17"
  op: "RealDiv"
  input: "Log_8"
  input: "truediv_17/y"
  device: "/device:CPU:*"
  attr {
    key: "T"
    value {
      type: DT_FLOAT
    }
  }
}
node {
  name: "sub_24"
  op: "Sub"
  input: "strided_slice_24"
  input: "strided_slice_25"
  device: "/device:CPU:*"
  attr {
    key: "T"
    value {
      type: DT_FLOAT
    }
  }
}
node {
  name: "Square_16"
  op: "Square"
  input: "sub_24"
  device: "/device:CPU:*"
  attr {
    key: "T"
    value {
      type: DT_FLOAT
    }
  }
}
node {
  name: "Const_25"
  op: "Const"
  device: "/device:CPU:*"
  attr {
    key: "dtype"
    value {
      type: DT_INT32
    }
  }
  attr {
    key: "value"
    value {
      tensor {
        dtype: DT_INT32
        tensor_shape {
          dim {
            size: 1
          }
        }
        int_val: 0
      }
    }
  }
}
node {
  name: "Sum_43"
  op: "Sum"
  input: "Square_16"
  input: "Const_25"
  device: "/device:CPU:*"
  attr {
    key: "T"
    value {
      type: DT_FLOAT
    }
  }
  attr {
    key: "Tidx"
    value {
      type: DT_INT32
    }
  }
  attr {
    key: "keep_dims"
    value {
      b: false
    }
  }
}
node {
  name: "sub_25"
  op: "Sub"
  input: "strided_slice_24"
  input: "strided_slice_26"
  device: "/device:CPU:*"
  attr {
    key: "T"
    value {
      type: DT_FLOAT
    }
  }
}
node {
  name: "Square_17"
  op: "Square"
  input: "sub_25"
  device: "/device:CPU:*"
  attr {
    key: "T"
    value {
      type: DT_FLOAT
    }
  }
}
node {
  name: "Const_26"
  op: "Const"
  device: "/device:CPU:*"
  attr {
    key: "dtype"
    value {
      type: DT_INT32
    }
  }
  attr {
    key: "value"
    value {
      tensor {
        dtype: DT_INT32
        tensor_shape {
          dim {
            size: 2
          }
        }
        tensor_content: "\000\000\000\000\001\000\000\000"
      }
    }
  }
}
node {
  name: "Sum_44"
  op: "Sum"
  input: "Square_17"
  input: "Const_26"
  device: "/device:CPU:*"
  attr {
    key: "T"
    value {
      type: DT_FLOAT
    }
  }
  attr {
    key: "Tidx"
    value {
      type: DT_INT32
    }
  }
  attr {
    key: "keep_dims"
    value {
      b: false
    }
  }
}
node {
  name: "sub_26"
  op: "Sub"
  input: "Sum_43"
  input: "Sum_44"
  device: "/device:CPU:*"
  attr {
    key: "T"
    value {
      type: DT_FLOAT
    }
  }
}
node {
  name: "add_20"
  op: "AddV2"
  input: "add_18"
  input: "sub_26"
  device: "/device:CPU:*"
  attr {
    key: "T"
    value {
      type: DT_FLOAT
    }
  }
}
node {
  name: "strided_slice_27/stack"
  op: "Const"
  device: "/device:CPU:*"
  attr {
    key: "dtype"
    value {
      type: DT_INT32
    }
  }
  attr {
    key: "value"
    value {
      tensor {
        dtype: DT_INT32
        tensor_shape {
          dim {
            size: 1
          }
        }
        int_val: 27
      }
    }
  }
}
node {
  name: "strided_slice_27/stack_1"
  op: "Const"
  device: "/device:CPU:*"
  attr {
    key: "dtype"
    value {
      type: DT_INT32
    }
  }
  attr {
    key: "value"
    value {
      tensor {
        dtype: DT_INT32
        tensor_shape {
          dim {
            size: 1
          }
        }
        int_val: 28
      }
    }
  }
}
node {
  name: "strided_slice_27/stack_2"
  op: "Const"
  device: "/device:CPU:*"
  attr {
    key: "dtype"
    value {
      type: DT_INT32
    }
  }
  attr {
    key: "value"
    value {
      tensor {
        dtype: DT_INT32
        tensor_shape {
          dim {
            size: 1
          }
        }
        int_val: 1
      }
    }
  }
}
node {
  name: "strided_slice_27"
  op: "StridedSlice"
  input: "normalize/truediv"
  input: "strided_slice_27/stack"
  input: "strided_slice_27/stack_1"
  input: "strided_slice_27/stack_2"
  device: "/device:CPU:*"
  attr {
    key: "Index"
    value {
      type: DT_INT32
    }
  }
  attr {
    key: "T"
    value {
      type: DT_FLOAT
    }
  }
  attr {
    key: "begin_mask"
    value {
      i: 0
    }
  }
  attr {
    key: "ellipsis_mask"
    value {
      i: 0
    }
  }
  attr {
    key: "end_mask"
    value {
      i: 0
    }
  }
  attr {
    key: "new_axis_mask"
    value {
      i: 0
    }
  }
  attr {
    key: "shrink_axis_mask"
    value {
      i: 1
    }
  }
}
node {
  name: "strided_slice_28/stack"
  op: "Const"
  device: "/device:CPU:*"
  attr {
    key: "dtype"
    value {
      type: DT_INT32
    }
  }
  attr {
    key: "value"
    value {
      tensor {
        dtype: DT_INT32
        tensor_shape {
          dim {
            size: 1
          }
        }
        int_val: 28
      }
    }
  }
}
node {
  name: "strided_slice_28/stack_1"
  op: "Const"
  device: "/device:CPU:*"
  attr {
    key: "dtype"
    value {
      type: DT_INT32
    }
  }
  attr {
    key: "value"
    value {
      tensor {
        dtype: DT_INT32
        tensor_shape {
          dim {
            size: 1
          }
        }
        int_val: 29
      }
    }
  }
}
node {
  name: "strided_slice_28/stack_2"
  op: "Const"
  device: "/device:CPU:*"
  attr {
    key: "dtype"
    value {
      type: DT_INT32
    }
  }
  attr {
    key: "value"
    value {
      tensor {
        dtype: DT_INT32
        tensor_shape {
          dim {
            size: 1
          }
        }
        int_val: 1
      }
    }
  }
}
node {
  name: "strided_slice_28"
  op: "StridedSlice"
  input: "normalize/truediv"
  input: "strided_slice_28/stack"
  input: "strided_slice_28/stack_1"
  input: "strided_slice_28/stack_2"
  device: "/device:CPU:*"
  attr {
    key: "Index"
    value {
      type: DT_INT32
    }
  }
  attr {
    key: "T"
    value {
      type: DT_FLOAT
    }
  }
  attr {
    key: "begin_mask"
    value {
      i: 0
    }
  }
  attr {
    key: "ellipsis_mask"
    value {
      i: 0
    }
  }
  attr {
    key: "end_mask"
    value {
      i: 0
    }
  }
  attr {
    key: "new_axis_mask"
    value {
      i: 0
    }
  }
  attr {
    key: "shrink_axis_mask"
    value {
      i: 1
    }
  }
}
node {
  name: "strided_slice_29/stack"
  op: "Const"
  device: "/device:CPU:*"
  attr {
    key: "dtype"
    value {
      type: DT_INT32
    }
  }
  attr {
    key: "value"
    value {
      tensor {
        dtype: DT_INT32
        tensor_shape {
          dim {
            size: 1
          }
        }
        int_val: 29
      }
    }
  }
}
node {
  name: "strided_slice_29/stack_1"
  op: "Const"
  device: "/device:CPU:*"
  attr {
    key: "dtype"
    value {
      type: DT_INT32
    }
  }
  attr {
    key: "value"
    value {
      tensor {
        dtype: DT_INT32
        tensor_shape {
          dim {
            size: 1
          }
        }
        int_val: 30
      }
    }
  }
}
node {
  name: "strided_slice_29/stack_2"
  op: "Const"
  device: "/device:CPU:*"
  attr {
    key: "dtype"
    value {
      type: DT_INT32
    }
  }
  attr {
    key: "value"
    value {
      tensor {
        dtype: DT_INT32
        tensor_shape {
          dim {
            size: 1
          }
        }
        int_val: 1
      }
    }
  }
}
node {
  name: "strided_slice_29"
  op: "StridedSlice"
  input: "normalize/truediv"
  input: "strided_slice_29/stack"
  input: "strided_slice_29/stack_1"
  input: "strided_slice_29/stack_2"
  device: "/device:CPU:*"
  attr {
    key: "Index"
    value {
      type: DT_INT32
    }
  }
  attr {
    key: "T"
    value {
      type: DT_FLOAT
    }
  }
  attr {
    key: "begin_mask"
    value {
      i: 0
    }
  }
  attr {
    key: "ellipsis_mask"
    value {
      i: 0
    }
  }
  attr {
    key: "end_mask"
    value {
      i: 0
    }
  }
  attr {
    key: "new_axis_mask"
    value {
      i: 0
    }
  }
  attr {
    key: "shrink_axis_mask"
    value {
      i: 0
    }
  }
}
node {
  name: "Mul_18"
  op: "Mul"
  input: "strided_slice_27"
  input: "strided_slice_28"
  device: "/device:CPU:*"
  attr {
    key: "T"
    value {
      type: DT_FLOAT
    }
  }
}
node {
  name: "Mul_19"
  op: "Mul"
  input: "strided_slice_27"
  input: "strided_slice_29"
  device: "/device:CPU:*"
  attr {
    key: "T"
    value {
      type: DT_FLOAT
    }
  }
}
node {
  name: "Sum_45/reduction_indices"
  op: "Const"
  device: "/device:CPU:*"
  attr {
    key: "dtype"
    value {
      type: DT_INT32
    }
  }
  attr {
    key: "value"
    value {
      tensor {
        dtype: DT_INT32
        tensor_shape {
        }
        int_val: -1
      }
    }
  }
}
node {
  name: "Sum_45"
  op: "Sum"
  input: "Mul_18"
  input: "Sum_45/reduction_indices"
  device: "/device:CPU:*"
  attr {
    key: "T"
    value {
      type: DT_FLOAT
    }
  }
  attr {
    key: "Tidx"
    value {
      type: DT_INT32
    }
  }
  attr {
    key: "keep_dims"
    value {
      b: false
    }
  }
}
node {
  name: "Sum_46/reduction_indices"
  op: "Const"
  device: "/device:CPU:*"
  attr {
    key: "dtype"
    value {
      type: DT_INT32
    }
  }
  attr {
    key: "value"
    value {
      tensor {
        dtype: DT_INT32
        tensor_shape {
        }
        int_val: -1
      }
    }
  }
}
node {
  name: "Sum_46"
  op: "Sum"
  input: "Mul_19"
  input: "Sum_46/reduction_indices"
  device: "/device:CPU:*"
  attr {
    key: "T"
    value {
      type: DT_FLOAT
    }
  }
  attr {
    key: "Tidx"
    value {
      type: DT_INT32
    }
  }
  attr {
    key: "keep_dims"
    value {
      b: false
    }
  }
}
node {
  name: "Exp_18"
  op: "Exp"
  input: "Sum_45"
  device: "/device:CPU:*"
  attr {
    key: "T"
    value {
      type: DT_FLOAT
    }
  }
}
node {
  name: "Exp_19"
  op: "Exp"
  input: "Sum_46"
  device: "/device:CPU:*"
  attr {
    key: "T"
    value {
      type: DT_FLOAT
    }
  }
}
node {
  name: "Const_27"
  op: "Const"
  device: "/device:CPU:*"
  attr {
    key: "dtype"
    value {
      type: DT_INT32
    }
  }
  attr {
    key: "value"
    value {
      tensor {
        dtype: DT_INT32
        tensor_shape {
          dim {
            size: 1
          }
        }
        int_val: 0
      }
    }
  }
}
node {
  name: "Sum_47"
  op: "Sum"
  input: "Exp_19"
  input: "Const_27"
  device: "/device:CPU:*"
  attr {
    key: "T"
    value {
      type: DT_FLOAT
    }
  }
  attr {
    key: "Tidx"
    value {
      type: DT_INT32
    }
  }
  attr {
    key: "keep_dims"
    value {
      b: false
    }
  }
}
node {
  name: "add_21"
  op: "AddV2"
  input: "Sum_47"
  input: "Exp_18"
  device: "/device:CPU:*"
  attr {
    key: "T"
    value {
      type: DT_FLOAT
    }
  }
}
node {
  name: "truediv_18"
  op: "RealDiv"
  input: "Exp_18"
  input: "add_21"
  device: "/device:CPU:*"
  attr {
    key: "T"
    value {
      type: DT_FLOAT
    }
  }
}
node {
  name: "Log_9"
  op: "Log"
  input: "truediv_18"
  device: "/device:CPU:*"
  attr {
    key: "T"
    value {
      type: DT_FLOAT
    }
  }
}
node {
  name: "truediv_19/y"
  op: "Const"
  device: "/device:CPU:*"
  attr {
    key: "dtype"
    value {
      type: DT_FLOAT
    }
  }
  attr {
    key: "value"
    value {
      tensor {
        dtype: DT_FLOAT
        tensor_shape {
        }
        float_val: 3.0
      }
    }
  }
}
node {
  name: "truediv_19"
  op: "RealDiv"
  input: "Log_9"
  input: "truediv_19/y"
  device: "/device:CPU:*"
  attr {
    key: "T"
    value {
      type: DT_FLOAT
    }
  }
}
node {
  name: "sub_27"
  op: "Sub"
  input: "strided_slice_27"
  input: "strided_slice_28"
  device: "/device:CPU:*"
  attr {
    key: "T"
    value {
      type: DT_FLOAT
    }
  }
}
node {
  name: "Square_18"
  op: "Square"
  input: "sub_27"
  device: "/device:CPU:*"
  attr {
    key: "T"
    value {
      type: DT_FLOAT
    }
  }
}
node {
  name: "Const_28"
  op: "Const"
  device: "/device:CPU:*"
  attr {
    key: "dtype"
    value {
      type: DT_INT32
    }
  }
  attr {
    key: "value"
    value {
      tensor {
        dtype: DT_INT32
        tensor_shape {
          dim {
            size: 1
          }
        }
        int_val: 0
      }
    }
  }
}
node {
  name: "Sum_48"
  op: "Sum"
  input: "Square_18"
  input: "Const_28"
  device: "/device:CPU:*"
  attr {
    key: "T"
    value {
      type: DT_FLOAT
    }
  }
  attr {
    key: "Tidx"
    value {
      type: DT_INT32
    }
  }
  attr {
    key: "keep_dims"
    value {
      b: false
    }
  }
}
node {
  name: "sub_28"
  op: "Sub"
  input: "strided_slice_27"
  input: "strided_slice_29"
  device: "/device:CPU:*"
  attr {
    key: "T"
    value {
      type: DT_FLOAT
    }
  }
}
node {
  name: "Square_19"
  op: "Square"
  input: "sub_28"
  device: "/device:CPU:*"
  attr {
    key: "T"
    value {
      type: DT_FLOAT
    }
  }
}
node {
  name: "Const_29"
  op: "Const"
  device: "/device:CPU:*"
  attr {
    key: "dtype"
    value {
      type: DT_INT32
    }
  }
  attr {
    key: "value"
    value {
      tensor {
        dtype: DT_INT32
…
  op: "Const"
  device: "/device:CPU:*"
  attr {
    key: "_class"
    value {
      list {
        s: "loc:@second_weights"
      }
    }
  }
  attr {
    key: "dtype"
    value {
      type: DT_FLOAT
    }
  }
  attr {
    key: "value"
    value {
      tensor {
        dtype: DT_FLOAT
        tensor_shape {
        }
        float_val: 0.0
      }
    }
  }
}
node {
  name: "second_weights/Adam/Initializer/zeros"
  op: "Fill"
  input: "second_weights/Adam/Initializer/zeros/shape_as_tensor"
  input: "second_weights/Adam/Initializer/zeros/Const"
  device: "/device:CPU:*"
  attr {
    key: "T"
    value {
      type: DT_FLOAT
    }
  }
  attr {
    key: "_class"
    value {
      list {
        s: "loc:@second_weights"
      }
    }
  }
  attr {
    key: "index_type"
    value {
      type: DT_INT32
    }
  }
}
node {
  name: "second_weights/Adam"
  op: "VariableV2"
  device: "/device:CPU:*"
  attr {
    key: "_class"
    value {
      list {
        s: "loc:@second_weights"
      }
    }
  }
  attr {
    key: "container"
    value {
      s: ""
    }
  }
  attr {
    key: "dtype"
    value {
      type: DT_FLOAT
    }
  }
  attr {
    key: "shape"
    value {
      shape {
        dim {
          size: 10
        }
        dim {
          size: 8
        }
        dim {
          size: 8
        }
        dim {
          size: 8
        }
      }
    }
  }
  attr {
    key: "shared_name"
    value {
      s: ""
    }
  }
}
node {
  name: "second_weights/Adam/Assign"
  op: "Assign"
  input: "second_weights/Adam"
  input: "second_weights/Adam/Initializer/zeros"
  device: "/device:CPU:*"
  attr {
    key: "T"
    value {
      type: DT_FLOAT
    }
  }
  attr {
    key: "_class"
    value {
      list {
        s: "loc:@second_weights"
      }
    }
  }
  attr {
    key: "use_locking"
    value {
      b: true
    }
  }
  attr {
    key: "validate_shape"
    value {
      b: true
    }
  }
}
node {
  name: "second_weights/Adam/read"
  op: "Identity"
  input: "second_weights/Adam"
  device: "/device:CPU:*"
  attr {
    key: "T"
    value {
      type: DT_FLOAT
    }
  }
  attr {
    key: "_class"
    value {
      list {
        s: "loc:@second_weights"
      }
    }
  }
}
node {
  name: "second_weights/Adam_1/Initializer/zeros/shape_as_tensor"
  op: "Const"
  device: "/device:CPU:*"
  attr {
    key: "_class"
    value {
      list {
        s: "loc:@second_weights"
      }
    }
  }
  attr {
    key: "dtype"
    value {
      type: DT_INT32
    }
  }
  attr {
    key: "value"
    value {
      tensor {
        dtype: DT_INT32
        tensor_shape {
          dim {
            size: 4
          }
        }
        tensor_content: "\n\000\000\000\010\000\000\000\010\000\000\000\010\000\000\000"
      }
    }
  }
}
node {
  name: "second_weights/Adam_1/Initializer/zeros/Const"
  op: "Const"
  device: "/device:CPU:*"
  attr {
    key: "_class"
    value {
      list {
        s: "loc:@second_weights"
      }
    }
  }
  attr {
    key: "dtype"
    value {
      type: DT_FLOAT
    }
  }
  attr {
    key: "value"
    value {
      tensor {
        dtype: DT_FLOAT
        tensor_shape {
        }
        float_val: 0.0
      }
    }
  }
}
node {
  name: "second_weights/Adam_1/Initializer/zeros"
  op: "Fill"
  input: "second_weights/Adam_1/Initializer/zeros/shape_as_tensor"
  input: "second_weights/Adam_1/Initializer/zeros/Const"
  device: "/device:CPU:*"
  attr {
    key: "T"
    value {
      type: DT_FLOAT
    }
  }
  attr {
    key: "_class"
    value {
      list {
        s: "loc:@second_weights"
      }
    }
  }
  attr {
    key: "index_type"
    value {
      type: DT_INT32
    }
  }
}
node {
  name: "second_weights/Adam_1"
  op: "VariableV2"
  device: "/device:CPU:*"
  attr {
    key: "_class"
    value {
      list {
        s: "loc:@second_weights"
      }
    }
  }
  attr {
    key: "container"
    value {
      s: ""
    }
  }
  attr {
    key: "dtype"
    value {
      type: DT_FLOAT
    }
  }
  attr {
    key: "shape"
    value {
      shape {
        dim {
          size: 10
        }
        dim {
          size: 8
        }
        dim {
          size: 8
        }
        dim {
          size: 8
        }
      }
    }
  }
  attr {
    key: "shared_name"
    value {
      s: ""
    }
  }
}
node {
  name: "second_weights/Adam_1/Assign"
  op: "Assign"
  input: "second_weights/Adam_1"
  input: "second_weights/Adam_1/Initializer/zeros"
  device: "/device:CPU:*"
  attr {
    key: "T"
    value {
      type: DT_FLOAT
    }
  }
  attr {
    key: "_class"
    value {
      list {
        s: "loc:@second_weights"
      }
    }
  }
  attr {
    key: "use_locking"
    value {
      b: true
    }
  }
  attr {
    key: "validate_shape"
    value {
      b: true
    }
  }
}
node {
  name: "second_weights/Adam_1/read"
  op: "Identity"
  input: "second_weights/Adam_1"
  device: "/device:CPU:*"
  attr {
    key: "T"
    value {
      type: DT_FLOAT
    }
  }
  attr {
    key: "_class"
    value {
      list {
        s: "loc:@second_weights"
      }
    }
  }
}
node {
  name: "second_bias/Adam/Initializer/zeros"
  op: "Const"
  device: "/device:CPU:*"
  attr {
    key: "_class"
    value {
      list {
        s: "loc:@second_bias"
      }
    }
  }
  attr {
    key: "dtype"
    value {
      type: DT_FLOAT
    }
  }
  attr {
    key: "value"
    value {
      tensor {
        dtype: DT_FLOAT
        tensor_shape {
          dim {
            size: 8
          }
        }
        float_val: 0.0
      }
    }
  }
}
node {
  name: "second_bias/Adam"
  op: "VariableV2"
  device: "/device:CPU:*"
  attr {
    key: "_class"
    value {
      list {
        s: "loc:@second_bias"
      }
    }
  }
  attr {
    key: "container"
    value {
      s: ""
    }
  }
  attr {
    key: "dtype"
    value {
      type: DT_FLOAT
    }
  }
  attr {
    key: "shape"
    value {
      shape {
        dim {
          size: 8
        }
      }
    }
  }
  attr {
    key: "shared_name"
    value {
      s: ""
    }
  }
}
node {
  name: "second_bias/Adam/Assign"
  op: "Assign"
  input: "second_bias/Adam"
  input: "second_bias/Adam/Initializer/zeros"
  device: "/device:CPU:*"
  attr {
    key: "T"
    value {
      type: DT_FLOAT
    }
  }
  attr {
    key: "_class"
    value {
      list {
        s: "loc:@second_bias"
      }
    }
  }
  attr {
    key: "use_locking"
    value {
      b: true
    }
  }
  attr {
    key: "validate_shape"
    value {
      b: true
    }
  }
}
node {
  name: "second_bias/Adam/read"
  op: "Identity"
  input: "second_bias/Adam"
  device: "/device:CPU:*"
  attr {
    key: "T"
    value {
      type: DT_FLOAT
    }
  }
  attr {
    key: "_class"
    value {
      list {
        s: "loc:@second_bias"
      }
    }
  }
}
node {
  name: "second_bias/Adam_1/Initializer/zeros"
  op: "Const"
  device: "/device:CPU:*"
  attr {
    key: "_class"
    value {
      list {
        s: "loc:@second_bias"
      }
    }
  }
  attr {
    key: "dtype"
    value {
      type: DT_FLOAT
    }
  }
  attr {
    key: "value"
    value {
      tensor {
        dtype: DT_FLOAT
        tensor_shape {
          dim {
            size: 8
          }
        }
        float_val: 0.0
      }
    }
  }
}
node {
  name: "second_bias/Adam_1"
  op: "VariableV2"
  device: "/device:CPU:*"
  attr {
    key: "_class"
    value {
      list {
        s: "loc:@second_bias"
      }
    }
  }
  attr {
    key: "container"
    value {
      s: ""
    }
  }
  attr {
    key: "dtype"
    value {
      type: DT_FLOAT
    }
  }
  attr {
    key: "shape"
    value {
      shape {
        dim {
          size: 8
        }
      }
    }
  }
  attr {
    key: "shared_name"
    value {
      s: ""
    }
  }
}
node {
  name: "second_bias/Adam_1/Assign"
  op: "Assign"
  input: "second_bias/Adam_1"
  input: "second_bias/Adam_1/Initializer/zeros"
  device: "/device:CPU:*"
  attr {
    key: "T"
    value {
      type: DT_FLOAT
    }
  }
  attr {
    key: "_class"
    value {
      list {
        s: "loc:@second_bias"
      }
    }
  }
  attr {
    key: "use_locking"
    value {
      b: true
    }
  }
  attr {
    key: "validate_shape"
    value {
      b: true
    }
  }
}
node {
  name: "second_bias/Adam_1/read"
  op: "Identity"
  input: "second_bias/Adam_1"
  device: "/device:CPU:*"
  attr {
    key: "T"
    value {
      type: DT_FLOAT
    }
  }
  attr {
    key: "_class"
    value {
      list {
        s: "loc:@second_bias"
      }
    }
  }
}
node {
  name: "final_fc_weights/Adam/Initializer/zeros/shape_as_tensor"
  op: "Const"
  device: "/device:CPU:*"
  attr {
    key: "_class"
    value {
      list {
        s: "loc:@final_fc_weights"
      }
    }
  }
  attr {
    key: "dtype"
    value {
      type: DT_INT32
    }
  }
  attr {
    key: "value"
    value {
      tensor {
        dtype: DT_INT32
        tensor_shape {
          dim {
            size: 2
          }
        }
        tensor_content: "\250\000\000\000\024\000\000\000"
      }
    }
  }
}
node {
  name: "final_fc_weights/Adam/Initializer/zeros/Const"
  op: "Const"
  device: "/device:CPU:*"
  attr {
    key: "_class"
    value {
      list {
        s: "loc:@final_fc_weights"
      }
    }
  }
  attr {
    key: "dtype"
    value {
      type: DT_FLOAT
    }
  }
  attr {
    key: "value"
    value {
      tensor {
        dtype: DT_FLOAT
        tensor_shape {
        }
        float_val: 0.0
      }
    }
  }
}
node {
  name: "final_fc_weights/Adam/Initializer/zeros"
  op: "Fill"
  input: "final_fc_weights/Adam/Initializer/zeros/shape_as_tensor"
  input: "final_fc_weights/Adam/Initializer/zeros/Const"
  device: "/device:CPU:*"
  attr {
    key: "T"
    value {
      type: DT_FLOAT
    }
  }
  attr {
    key: "_class"
    value {
      list {
        s: "loc:@final_fc_weights"
      }
    }
  }
  attr {
    key: "index_type"
    value {
      type: DT_INT32
    }
  }
}
node {
  name: "final_fc_weights/Adam"
  op: "VariableV2"
  device: "/device:CPU:*"
  attr {
    key: "_class"
    value {
      list {
        s: "loc:@final_fc_weights"
      }
    }
  }
  attr {
    key: "container"
    value {
      s: ""
    }
  }
  attr {
    key: "dtype"
    value {
      type: DT_FLOAT
    }
  }
  attr {
    key: "shape"
    value {
      shape {
        dim {
          size: 168
        }
        dim {
          size: 20
        }
      }
    }
  }
  attr {
    key: "shared_name"
    value {
      s: ""
    }
  }
}
node {
  name: "final_fc_weights/Adam/Assign"
  op: "Assign"
  input: "final_fc_weights/Adam"
  input: "final_fc_weights/Adam/Initializer/zeros"
  device: "/device:CPU:*"
  attr {
    key: "T"
    value {
      type: DT_FLOAT
    }
  }
  attr {
    key: "_class"
    value {
      list {
        s: "loc:@final_fc_weights"
      }
    }
  }
  attr {
    key: "use_locking"
    value {
      b: true
    }
  }
  attr {
    key: "validate_shape"
    value {
      b: true
    }
  }
}
node {
  name: "final_fc_weights/Adam/read"
  op: "Identity"
  input: "final_fc_weights/Adam"
  device: "/device:CPU:*"
  attr {
    key: "T"
    value {
      type: DT_FLOAT
    }
  }
  attr {
    key: "_class"
    value {
      list {
        s: "loc:@final_fc_weights"
      }
    }
  }
}
node {
  name: "final_fc_weights/Adam_1/Initializer/zeros/shape_as_tensor"
  op: "Const"
  device: "/device:CPU:*"
  attr {
    key: "_class"
    value {
      list {
        s: "loc:@final_fc_weights"
      }
    }
  }
  attr {
    key: "dtype"
    value {
      type: DT_INT32
    }
  }
  attr {
    key: "value"
    value {
      tensor {
        dtype: DT_INT32
        tensor_shape {
          dim {
            size: 2
          }
        }
        tensor_content: "\250\000\000\000\024\000\000\000"
      }
    }
  }
}
node {
  name: "final_fc_weights/Adam_1/Initializer/zeros/Const"
  op: "Const"
  device: "/device:CPU:*"
  attr {
    key: "_class"
    value {
      list {
        s: "loc:@final_fc_weights"
      }
    }
  }
  attr {
    key: "dtype"
    value {
      type: DT_FLOAT
    }
  }
  attr {
    key: "value"
    value {
      tensor {
        dtype: DT_FLOAT
        tensor_shape {
        }
        float_val: 0.0
      }
    }
  }
}
node {
  name: "final_fc_weights/Adam_1/Initializer/zeros"
  op: "Fill"
  input: "final_fc_weights/Adam_1/Initializer/zeros/shape_as_tensor"
  input: "final_fc_weights/Adam_1/Initializer/zeros/Const"
  device: "/device:CPU:*"
  attr {
    key: "T"
    value {
      type: DT_FLOAT
    }
  }
  attr {
    key: "_class"
    value {
      list {
        s: "loc:@final_fc_weights"
      }
    }
  }
  attr {
    key: "index_type"
    value {
      type: DT_INT32
    }
  }
}
node {
  name: "final_fc_weights/Adam_1"
  op: "VariableV2"
  device: "/device:CPU:*"
  attr {
    key: "_class"
    value {
      list {
        s: "loc:@final_fc_weights"
      }
    }
  }
  attr {
    key: "container"
    value {
      s: ""
    }
  }
  attr {
    key: "dtype"
    value {
      type: DT_FLOAT
    }
  }
  attr {
    key: "shape"
    value {
      shape {
        dim {
          size: 168
        }
        dim {
          size: 20
        }
      }
    }
  }
  attr {
    key: "shared_name"
    value {
      s: ""
    }
  }
}
node {
  name: "final_fc_weights/Adam_1/Assign"
  op: "Assign"
  input: "final_fc_weights/Adam_1"
  input: "final_fc_weights/Adam_1/Initializer/zeros"
  device: "/device:CPU:*"
  attr {
    key: "T"
    value {
      type: DT_FLOAT
    }
  }
  attr {
    key: "_class"
    value {
      list {
        s: "loc:@final_fc_weights"
      }
    }
  }
  attr {
    key: "use_locking"
    value {
      b: true
    }
  }
  attr {
    key: "validate_shape"
    value {
      b: true
    }
  }
}
node {
  name: "final_fc_weights/Adam_1/read"
  op: "Identity"
  input: "final_fc_weights/Adam_1"
  device: "/device:CPU:*"
  attr {
    key: "T"
    value {
      type: DT_FLOAT
    }
  }
  attr {
    key: "_class"
    value {
      list {
        s: "loc:@final_fc_weights"
      }
    }
  }
}
node {
  name: "final_fc_bias/Adam/Initializer/zeros"
  op: "Const"
  device: "/device:CPU:*"
  attr {
    key: "_class"
    value {
      list {
        s: "loc:@final_fc_bias"
      }
    }
  }
  attr {
    key: "dtype"
    value {
      type: DT_FLOAT
    }
  }
  attr {
    key: "value"
    value {
      tensor {
        dtype: DT_FLOAT
        tensor_shape {
          dim {
            size: 20
          }
        }
        float_val: 0.0
      }
    }
  }
}
node {
  name: "final_fc_bias/Adam"
  op: "VariableV2"
  device: "/device:CPU:*"
  attr {
    key: "_class"
    value {
      list {
        s: "loc:@final_fc_bias"
      }
    }
  }
  attr {
    key: "container"
    value {
      s: ""
    }
  }
  attr {
    key: "dtype"
    value {
      type: DT_FLOAT
    }
  }
  attr {
    key: "shape"
    value {
      shape {
        dim {
          size: 20
        }
      }
    }
  }
  attr {
    key: "shared_name"
    value {
      s: ""
    }
  }
}
node {
  name: "final_fc_bias/Adam/Assign"
  op: "Assign"
  input: "final_fc_bias/Adam"
  input: "final_fc_bias/Adam/Initializer/zeros"
  device: "/device:CPU:*"
  attr {
    key: "T"
    value {
      type: DT_FLOAT
    }
  }
  attr {
    key: "_class"
    value {
      list {
        s: "loc:@final_fc_bias"
      }
    }
  }
  attr {
    key: "use_locking"
    value {
      b: true
    }
  }
  attr {
    key: "validate_shape"
    value {
      b: true
    }
  }
}
node {
  name: "final_fc_bias/Adam/read"
  op: "Identity"
  input: "final_fc_bias/Adam"
  device: "/device:CPU:*"
  attr {
    key: "T"
    value {
      type: DT_FLOAT
    }
  }
  attr {
    key: "_class"
    value {
      list {
        s: "loc:@final_fc_bias"
      }
    }
  }
}
node {
  name: "final_fc_bias/Adam_1/Initializer/zeros"
  op: "Const"
  device: "/device:CPU:*"
  attr {
    key: "_class"
    value {
      list {
        s: "loc:@final_fc_bias"
      }
    }
  }
  attr {
    key: "dtype"
    value {
      type: DT_FLOAT
    }
  }
  attr {
    key: "value"
    value {
      tensor {
        dtype: DT_FLOAT
        tensor_shape {
          dim {
            size: 20
          }
        }
        float_val: 0.0
      }
    }
  }
}
node {
  name: "final_fc_bias/Adam_1"
  op: "VariableV2"
  device: "/device:CPU:*"
  attr {
    key: "_class"
    value {
      list {
        s: "loc:@final_fc_bias"
      }
    }
  }
  attr {
    key: "container"
    value {
      s: ""
    }
  }
  attr {
    key: "dtype"
    value {
      type: DT_FLOAT
    }
  }
  attr {
    key: "shape"
    value {
      shape {
        dim {
          size: 20
        }
      }
    }
  }
  attr {
    key: "shared_name"
    value {
      s: ""
    }
  }
}
node {
  name: "final_fc_bias/Adam_1/Assign"
  op: "Assign"
  input: "final_fc_bias/Adam_1"
  input: "final_fc_bias/Adam_1/Initializer/zeros"
  device: "/device:CPU:*"
  attr {
    key: "T"
    value {
      type: DT_FLOAT
    }
  }
  attr {
    key: "_class"
    value {
      list {
        s: "loc:@final_fc_bias"
      }
    }
  }
  attr {
    key: "use_locking"
    value {
      b: true
    }
  }
  attr {
    key: "validate_shape"
    value {
      b: true
    }
  }
}
node {
  name: "final_fc_bias/Adam_1/read"
  op: "Identity"
  input: "final_fc_bias/Adam_1"
  device: "/device:CPU:*"
  attr {
    key: "T"
    value {
      type: DT_FLOAT
    }
  }
  attr {
    key: "_class"
    value {
      list {
        s: "loc:@final_fc_bias"
      }
    }
  }
}
node {
  name: "train/Adam/beta1"
  op: "Const"
  device: "/device:CPU:*"
  attr {
    key: "dtype"
    value {
      type: DT_FLOAT
    }
  }
  attr {
    key: "value"
    value {
      tensor {
        dtype: DT_FLOAT
        tensor_shape {
        }
        float_val: 0.8999999761581421
      }
    }
  }
}
node {
  name: "train/Adam/beta2"
  op: "Const"
  device: "/device:CPU:*"
  attr {
    key: "dtype"
    value {
      type: DT_FLOAT
    }
  }
  attr {
    key: "value"
    value {
      tensor {
        dtype: DT_FLOAT
        tensor_shape {
        }
        float_val: 0.9990000128746033
      }
    }
  }
}
node {
  name: "train/Adam/epsilon"
  op: "Const"
  device: "/device:CPU:*"
  attr {
    key: "dtype"
    value {
      type: DT_FLOAT
    }
  }
  attr {
    key: "value"
    value {
      tensor {
        dtype: DT_FLOAT
        tensor_shape {
        }
        float_val: 9.99999993922529e-09
      }
    }
  }
}
node {
  name: "train/Adam/update_first_weights/ApplyAdam"
  op: "ApplyAdam"
  input: "first_weights"
  input: "first_weights/Adam"
  input: "first_weights/Adam_1"
  input: "train/beta1_power/read"
  input: "train/beta2_power/read"
  input: "train/learning_rate_input"
  input: "train/Adam/beta1"
  input: "train/Adam/beta2"
  input: "train/Adam/epsilon"
  input: "train/gradients/Conv2D_grad/tuple/control_dependency_1"
  device: "/device:CPU:*"
  attr {
    key: "T"
    value {
      type: DT_FLOAT
    }
  }
  attr {
    key: "_class"
    value {
      list {
        s: "loc:@first_weights"
      }
    }
  }
  attr {
    key: "use_locking"
    value {
      b: false
    }
  }
  attr {
    key: "use_nesterov"
    value {
      b: false
    }
  }
}
node {
  name: "train/Adam/update_first_bias/ApplyAdam"
  op: "ApplyAdam"
  input: "first_bias"
  input: "first_bias/Adam"
  input: "first_bias/Adam_1"
  input: "train/beta1_power/read"
  input: "train/beta2_power/read"
  input: "train/learning_rate_input"
  input: "train/Adam/beta1"
  input: "train/Adam/beta2"
  input: "train/Adam/epsilon"
  input: "train/gradients/add_grad/tuple/control_dependency_1"
  device: "/device:CPU:*"
  attr {
    key: "T"
    value {
      type: DT_FLOAT
    }
  }
  attr {
    key: "_class"
    value {
      list {
        s: "loc:@first_bias"
      }
    }
  }
  attr {
    key: "use_locking"
    value {
      b: false
    }
  }
  attr {
    key: "use_nesterov"
    value {
      b: false
    }
  }
}
node {
  name: "train/Adam/update_second_weights/ApplyAdam"
  op: "ApplyAdam"
  input: "second_weights"
  input: "second_weights/Adam"
  input: "second_weights/Adam_1"
  input: "train/beta1_power/read"
  input: "train/beta2_power/read"
  input: "train/learning_rate_input"
  input: "train/Adam/beta1"
  input: "train/Adam/beta2"
  input: "train/Adam/epsilon"
  input: "train/gradients/Conv2D_1_grad/tuple/control_dependency_1"
  device: "/device:CPU:*"
  attr {
    key: "T"
    value {
      type: DT_FLOAT
    }
  }
  attr {
    key: "_class"
    value {
      list {
        s: "loc:@second_weights"
      }
    }
  }
  attr {
    key: "use_locking"
    value {
      b: false
    }
  }
  attr {
    key: "use_nesterov"
    value {
      b: false
    }
  }
}
node {
  name: "train/Adam/update_second_bias/ApplyAdam"
  op: "ApplyAdam"
  input: "second_bias"
  input: "second_bias/Adam"
  input: "second_bias/Adam_1"
  input: "train/beta1_power/read"
  input: "train/beta2_power/read"
  input: "train/learning_rate_input"
  input: "train/Adam/beta1"
  input: "train/Adam/beta2"
  input: "train/Adam/epsilon"
  input: "train/gradients/add_1_grad/tuple/control_dependency_1"
  device: "/device:CPU:*"
  attr {
    key: "T"
    value {
      type: DT_FLOAT
    }
  }
  attr {
    key: "_class"
    value {
      list {
        s: "loc:@second_bias"
      }
    }
  }
  attr {
    key: "use_locking"
    value {
      b: false
    }
  }
  attr {
    key: "use_nesterov"
    value {
      b: false
    }
  }
}
node {
  name: "train/Adam/update_final_fc_weights/ApplyAdam"
  op: "ApplyAdam"
  input: "final_fc_weights"
  input: "final_fc_weights/Adam"
  input: "final_fc_weights/Adam_1"
  input: "train/beta1_power/read"
  input: "train/beta2_power/read"
  input: "train/learning_rate_input"
  input: "train/Adam/beta1"
  input: "train/Adam/beta2"
  input: "train/Adam/epsilon"
  input: "train/gradients/MatMul_grad/tuple/control_dependency_1"
  device: "/device:CPU:*"
  attr {
    key: "T"
    value {
      type: DT_FLOAT
    }
  }
  attr {
    key: "_class"
    value {
      list {
        s: "loc:@final_fc_weights"
      }
    }
  }
  attr {
    key: "use_locking"
    value {
      b: false
    }
  }
  attr {
    key: "use_nesterov"
    value {
      b: false
    }
  }
}
node {
  name: "train/Adam/update_final_fc_bias/ApplyAdam"
  op: "ApplyAdam"
  input: "final_fc_bias"
  input: "final_fc_bias/Adam"
  input: "final_fc_bias/Adam_1"
  input: "train/beta1_power/read"
  input: "train/beta2_power/read"
  input: "train/learning_rate_input"
  input: "train/Adam/beta1"
  input: "train/Adam/beta2"
  input: "train/Adam/epsilon"
  input: "train/gradients/add_2_grad/tuple/control_dependency_1"
  device: "/device:CPU:*"
  attr {
    key: "T"
    value {
      type: DT_FLOAT
    }
  }
  attr {
    key: "_class"
    value {
      list {
        s: "loc:@final_fc_bias"
      }
    }
  }
  attr {
    key: "use_locking"
    value {
      b: false
    }
  }
  attr {
    key: "use_nesterov"
    value {
      b: false
    }
  }
}
node {
  name: "train/Adam/mul"
  op: "Mul"
  input: "train/beta1_power/read"
  input: "train/Adam/beta1"
  input: "^train/Adam/update_final_fc_bias/ApplyAdam"
  input: "^train/Adam/update_final_fc_weights/ApplyAdam"
  input: "^train/Adam/update_first_bias/ApplyAdam"
  input: "^train/Adam/update_first_weights/ApplyAdam"
  input: "^train/Adam/update_second_bias/ApplyAdam"
  input: "^train/Adam/update_second_weights/ApplyAdam"
  device: "/device:CPU:*"
  attr {
    key: "T"
    value {
      type: DT_FLOAT
    }
  }
  attr {
    key: "_class"
    value {
      list {
        s: "loc:@final_fc_bias"
      }
    }
  }
}
node {
  name: "train/Adam/Assign"
  op: "Assign"
  input: "train/beta1_power"
  input: "train/Adam/mul"
  device: "/device:CPU:*"
  attr {
    key: "T"
    value {
      type: DT_FLOAT
    }
  }
  attr {
    key: "_class"
    value {
      list {
        s: "loc:@final_fc_bias"
      }
    }
  }
  attr {
    key: "use_locking"
    value {
      b: false
    }
  }
  attr {
    key: "validate_shape"
    value {
      b: true
    }
  }
}
node {
  name: "train/Adam/mul_1"
  op: "Mul"
  input: "train/beta2_power/read"
  input: "train/Adam/beta2"
  input: "^train/Adam/update_final_fc_bias/ApplyAdam"
  input: "^train/Adam/update_final_fc_weights/ApplyAdam"
  input: "^train/Adam/update_first_bias/ApplyAdam"
  input: "^train/Adam/update_first_weights/ApplyAdam"
  input: "^train/Adam/update_second_bias/ApplyAdam"
  input: "^train/Adam/update_second_weights/ApplyAdam"
  device: "/device:CPU:*"
  attr {
    key: "T"
    value {
      type: DT_FLOAT
    }
  }
  attr {
    key: "_class"
    value {
      list {
        s: "loc:@final_fc_bias"
      }
    }
  }
}
node {
  name: "train/Adam/Assign_1"
  op: "Assign"
  input: "train/beta2_power"
  input: "train/Adam/mul_1"
  device: "/device:CPU:*"
  attr {
    key: "T"
    value {
      type: DT_FLOAT
    }
  }
  attr {
    key: "_class"
    value {
      list {
        s: "loc:@final_fc_bias"
      }
    }
  }
  attr {
    key: "use_locking"
    value {
      b: false
    }
  }
  attr {
    key: "validate_shape"
    value {
      b: true
    }
  }
}
node {
  name: "train/Adam"
  op: "NoOp"
  input: "^train/Adam/Assign"
  input: "^train/Adam/Assign_1"
  input: "^train/Adam/update_final_fc_bias/ApplyAdam"
  input: "^train/Adam/update_final_fc_weights/ApplyAdam"
  input: "^train/Adam/update_first_bias/ApplyAdam"
  input: "^train/Adam/update_first_weights/ApplyAdam"
  input: "^train/Adam/update_second_bias/ApplyAdam"
  input: "^train/Adam/update_second_weights/ApplyAdam"
  device: "/device:CPU:*"
}
node {
  name: "eval/loss/tags"
  op: "Const"
  attr {
    key: "dtype"
    value {
      type: DT_STRING
    }
  }
  attr {
    key: "value"
    value {
      tensor {
        dtype: DT_STRING
        tensor_shape {
        }
        string_val: "eval/loss"
      }
    }
  }
}
node {
  name: "eval/loss"
  op: "ScalarSummary"
  input: "eval/loss/tags"
  input: "add_22"
  attr {
    key: "T"
    value {
      type: DT_FLOAT
    }
  }
}
node {
  name: "eval/pos_similarity/tags"
  op: "Const"
  attr {
    key: "dtype"
    value {
      type: DT_STRING
    }
  }
  attr {
    key: "value"
    value {
      tensor {
        dtype: DT_STRING
        tensor_shape {
        }
        string_val: "eval/pos_similarity"
      }
    }
  }
}
node {
  name: "eval/pos_similarity"
  op: "ScalarSummary"
  input: "eval/pos_similarity/tags"
  input: "Sum_48"
  attr {
    key: "T"
    value {
      type: DT_FLOAT
    }
  }
}
node {
  name: "eval/Const"
  op: "Const"
  attr {
    key: "dtype"
    value {
      type: DT_INT32
    }
  }
  attr {
    key: "value"
    value {
      tensor {
        dtype: DT_INT32
        tensor_shape {
          dim {
          }
        }
      }
    }
  }
}
node {
  name: "eval/Sum"
  op: "Sum"
  input: "Sum_49"
  input: "eval/Const"
  attr {
    key: "T"
    value {
      type: DT_FLOAT
    }
  }
  attr {
    key: "Tidx"
    value {
      type: DT_INT32
    }
  }
  attr {
    key: "keep_dims"
    value {
      b: false
    }
  }
}
node {
  name: "eval/truediv/y"
  op: "Const"
  attr {
    key: "dtype"
    value {
      type: DT_FLOAT
    }
  }
  attr {
    key: "value"
    value {
      tensor {
        dtype: DT_FLOAT
        tensor_shape {
        }
        float_val: 1.0
      }
    }
  }
}
node {
  name: "eval/truediv"
  op: "RealDiv"
  input: "eval/Sum"
  input: "eval/truediv/y"
  attr {
    key: "T"
    value {
      type: DT_FLOAT
    }
  }
}
node {
  name: "eval/neg_mean_similarity/tags"
  op: "Const"
  attr {
    key: "dtype"
    value {
      type: DT_STRING
    }
  }
  attr {
    key: "value"
    value {
      tensor {
        dtype: DT_STRING
        tensor_shape {
        }
        string_val: "eval/neg_mean_similarity"
      }
    }
  }
}
node {
  name: "eval/neg_mean_similarity"
  op: "ScalarSummary"
  input: "eval/neg_mean_similarity/tags"
  input: "eval/truediv"
  attr {
    key: "T"
    value {
      type: DT_FLOAT
    }
  }
}
node {
  name: "eval/Const_1"
  op: "Const"
  attr {
    key: "dtype"
    value {
      type: DT_INT32
    }
  }
  attr {
    key: "value"
    value {
      tensor {
        dtype: DT_INT32
        tensor_shape {
          dim {
          }
        }
      }
    }
  }
}
node {
  name: "eval/Sum_1"
  op: "Sum"
  input: "Sum_49"
  input: "eval/Const_1"
  attr {
    key: "T"
    value {
      type: DT_FLOAT
    }
  }
  attr {
    key: "Tidx"
    value {
      type: DT_INT32
    }
  }
  attr {
    key: "keep_dims"
    value {
      b: false
    }
  }
}
node {
  name: "eval/truediv_1/y"
  op: "Const"
  attr {
    key: "dtype"
    value {
      type: DT_FLOAT
    }
  }
  attr {
    key: "value"
    value {
      tensor {
        dtype: DT_FLOAT
        tensor_shape {
        }
        float_val: 1.0
      }
    }
  }
}
node {
  name: "eval/truediv_1"
  op: "RealDiv"
  input: "eval/Sum_1"
  input: "eval/truediv_1/y"
  attr {
    key: "T"
    value {
      type: DT_FLOAT
    }
  }
}
node {
  name: "eval/sub"
  op: "Sub"
  input: "Sum_48"
  input: "eval/truediv_1"
  attr {
    key: "T"
    value {
      type: DT_FLOAT
    }
  }
}
node {
  name: "eval/pos_similarity_minus_neg_mean_similarity/tags"
  op: "Const"
  attr {
    key: "dtype"
    value {
      type: DT_STRING
    }
  }
  attr {
    key: "value"
    value {
      tensor {
        dtype: DT_STRING
        tensor_shape {
        }
        string_val: "eval/pos_similarity_minus_neg_mean_similarity"
      }
    }
  }
}
node {
  name: "eval/pos_similarity_minus_neg_mean_similarity"
  op: "ScalarSummary"
  input: "eval/pos_similarity_minus_neg_mean_similarity/tags"
  input: "eval/sub"
  attr {
    key: "T"
    value {
      type: DT_FLOAT
    }
  }
}
node {
  name: "global_step/Initializer/zeros"
  op: "Const"
  attr {
    key: "_class"
    value {
      list {
        s: "loc:@global_step"
      }
    }
  }
  attr {
    key: "dtype"
    value {
      type: DT_INT64
    }
  }
  attr {
    key: "value"
    value {
      tensor {
        dtype: DT_INT64
        tensor_shape {
        }
        int64_val: 0
      }
    }
  }
}
node {
  name: "global_step"
  op: "VariableV2"
  attr {
    key: "_class"
    value {
      list {
        s: "loc:@global_step"
      }
    }
  }
  attr {
    key: "container"
    value {
      s: ""
    }
  }
  attr {
    key: "dtype"
    value {
      type: DT_INT64
    }
  }
  attr {
    key: "shape"
    value {
      shape {
      }
    }
  }
  attr {
    key: "shared_name"
    value {
      s: ""
    }
  }
}
node {
  name: "global_step/Assign"
  op: "Assign"
  input: "global_step"
  input: "global_step/Initializer/zeros"
  attr {
    key: "T"
    value {
      type: DT_INT64
    }
  }
  attr {
    key: "_class"
    value {
      list {
        s: "loc:@global_step"
      }
    }
  }
  attr {
    key: "use_locking"
    value {
      b: true
    }
  }
  attr {
    key: "validate_shape"
    value {
      b: true
    }
  }
}
node {
  name: "global_step/read"
  op: "Identity"
  input: "global_step"
  attr {
    key: "T"
    value {
      type: DT_INT64
    }
  }
  attr {
    key: "_class"
    value {
      list {
        s: "loc:@global_step"
      }
    }
  }
}
node {
  name: "add_23/y"
  op: "Const"
  attr {
    key: "dtype"
    value {
      type: DT_INT64
    }
  }
  attr {
    key: "value"
    value {
      tensor {
        dtype: DT_INT64
        tensor_shape {
        }
        int64_val: 1
      }
    }
  }
}
node {
  name: "add_23"
  op: "AddV2"
  input: "global_step/read"
  input: "add_23/y"
  attr {
    key: "T"
    value {
      type: DT_INT64
    }
  }
}
node {
  name: "Assign"
  op: "Assign"
  input: "global_step"
  input: "add_23"
  attr {
    key: "T"
    value {
      type: DT_INT64
    }
  }
  attr {
    key: "_class"
    value {
      list {
        s: "loc:@global_step"
      }
    }
  }
  attr {
    key: "use_locking"
    value {
      b: true
    }
  }
  attr {
    key: "validate_shape"
    value {
      b: true
    }
  }
}
node {
  name: "save/filename/input"
  op: "Const"
  attr {
    key: "dtype"
    value {
      type: DT_STRING
    }
  }
  attr {
    key: "value"
    value {
      tensor {
        dtype: DT_STRING
        tensor_shape {
        }
        string_val: "model"
      }
    }
  }
}
node {
  name: "save/filename"
  op: "PlaceholderWithDefault"
  input: "save/filename/input"
  attr {
    key: "dtype"
    value {
      type: DT_STRING
    }
  }
  attr {
    key: "shape"
    value {
      shape {
      }
    }
  }
}
node {
  name: "save/Const"
  op: "PlaceholderWithDefault"
  input: "save/filename"
  attr {
    key: "dtype"
    value {
      type: DT_STRING
    }
  }
  attr {
    key: "shape"
    value {
      shape {
      }
    }
  }
}
node {
  name: "save/SaveV2/tensor_names"
  op: "Const"
  attr {
    key: "dtype"
    value {
      type: DT_STRING
    }
  }
  attr {
    key: "value"
    value {
      tensor {
        dtype: DT_STRING
        tensor_shape {
          dim {
            size: 21
          }
        }
        string_val: "final_fc_bias"
        string_val: "final_fc_bias/Adam"
        string_val: "final_fc_bias/Adam_1"
        string_val: "final_fc_weights"
        string_val: "final_fc_weights/Adam"
        string_val: "final_fc_weights/Adam_1"
        string_val: "first_bias"
        string_val: "first_bias/Adam"
        string_val: "first_bias/Adam_1"
        string_val: "first_weights"
        string_val: "first_weights/Adam"
        string_val: "first_weights/Adam_1"
        string_val: "global_step"
        string_val: "second_bias"
        string_val: "second_bias/Adam"
        string_val: "second_bias/Adam_1"
        string_val: "second_weights"
        string_val: "second_weights/Adam"
        string_val: "second_weights/Adam_1"
        string_val: "train/beta1_power"
        string_val: "train/beta2_power"
      }
    }
  }
}
node {
  name: "save/SaveV2/shape_and_slices"
  op: "Const"
  attr {
    key: "dtype"
    value {
      type: DT_STRING
    }
  }
  attr {
    key: "value"
    value {
      tensor {
        dtype: DT_STRING
        tensor_shape {
          dim {
            size: 21
          }
        }
        string_val: ""
        string_val: ""
        string_val: ""
        string_val: ""
        string_val: ""
        string_val: ""
        string_val: ""
        string_val: ""
        string_val: ""
        string_val: ""
        string_val: ""
        string_val: ""
        string_val: ""
        string_val: ""
        string_val: ""
        string_val: ""
        string_val: ""
        string_val: ""
        string_val: ""
        string_val: ""
        string_val: ""
      }
    }
  }
}
node {
  name: "save/SaveV2"
  op: "SaveV2"
  input: "save/Const"
  input: "save/SaveV2/tensor_names"
  input: "save/SaveV2/shape_and_slices"
  input: "final_fc_bias"
  input: "final_fc_bias/Adam"
  input: "final_fc_bias/Adam_1"
  input: "final_fc_weights"
  input: "final_fc_weights/Adam"
  input: "final_fc_weights/Adam_1"
  input: "first_bias"
  input: "first_bias/Adam"
  input: "first_bias/Adam_1"
  input: "first_weights"
  input: "first_weights/Adam"
  input: "first_weights/Adam_1"
  input: "global_step"
  input: "second_bias"
  input: "second_bias/Adam"
  input: "second_bias/Adam_1"
  input: "second_weights"
  input: "second_weights/Adam"
  input: "second_weights/Adam_1"
  input: "train/beta1_power"
  input: "train/beta2_power"
  attr {
    key: "dtypes"
    value {
      list {
        type: DT_FLOAT
        type: DT_FLOAT
        type: DT_FLOAT
        type: DT_FLOAT
        type: DT_FLOAT
        type: DT_FLOAT
        type: DT_FLOAT
        type: DT_FLOAT
        type: DT_FLOAT
        type: DT_FLOAT
        type: DT_FLOAT
        type: DT_FLOAT
        type: DT_INT64
        type: DT_FLOAT
        type: DT_FLOAT
        type: DT_FLOAT
        type: DT_FLOAT
        type: DT_FLOAT
        type: DT_FLOAT
        type: DT_FLOAT
        type: DT_FLOAT
      }
    }
  }
}
node {
  name: "save/control_dependency"
  op: "Identity"
  input: "save/Const"
  input: "^save/SaveV2"
  attr {
    key: "T"
    value {
      type: DT_STRING
    }
  }
  attr {
    key: "_class"
    value {
      list {
        s: "loc:@save/Const"
      }
    }
  }
}
node {
  name: "save/RestoreV2/tensor_names"
  op: "Const"
  device: "/device:CPU:0"
  attr {
    key: "dtype"
    value {
      type: DT_STRING
    }
  }
  attr {
    key: "value"
    value {
      tensor {
        dtype: DT_STRING
        tensor_shape {
          dim {
            size: 21
          }
        }
        string_val: "final_fc_bias"
        string_val: "final_fc_bias/Adam"
        string_val: "final_fc_bias/Adam_1"
        string_val: "final_fc_weights"
        string_val: "final_fc_weights/Adam"
        string_val: "final_fc_weights/Adam_1"
        string_val: "first_bias"
        string_val: "first_bias/Adam"
        string_val: "first_bias/Adam_1"
        string_val: "first_weights"
        string_val: "first_weights/Adam"
        string_val: "first_weights/Adam_1"
        string_val: "global_step"
        string_val: "second_bias"
        string_val: "second_bias/Adam"
        string_val: "second_bias/Adam_1"
        string_val: "second_weights"
        string_val: "second_weights/Adam"
        string_val: "second_weights/Adam_1"
        string_val: "train/beta1_power"
        string_val: "train/beta2_power"
      }
    }
  }
}
node {
  name: "save/RestoreV2/shape_and_slices"
  op: "Const"
  device: "/device:CPU:0"
  attr {
    key: "dtype"
    value {
      type: DT_STRING
    }
  }
  attr {
    key: "value"
    value {
      tensor {
        dtype: DT_STRING
        tensor_shape {
          dim {
            size: 21
          }
        }
        string_val: ""
        string_val: ""
        string_val: ""
        string_val: ""
        string_val: ""
        string_val: ""
        string_val: ""
        string_val: ""
        string_val: ""
        string_val: ""
        string_val: ""
        string_val: ""
        string_val: ""
        string_val: ""
        string_val: ""
        string_val: ""
        string_val: ""
        string_val: ""
        string_val: ""
        string_val: ""
        string_val: ""
      }
    }
  }
}
node {
  name: "save/RestoreV2"
  op: "RestoreV2"
  input: "save/Const"
  input: "save/RestoreV2/tensor_names"
  input: "save/RestoreV2/shape_and_slices"
  device: "/device:CPU:0"
  attr {
    key: "dtypes"
    value {
      list {
        type: DT_FLOAT
        type: DT_FLOAT
        type: DT_FLOAT
        type: DT_FLOAT
        type: DT_FLOAT
        type: DT_FLOAT
        type: DT_FLOAT
        type: DT_FLOAT
        type: DT_FLOAT
        type: DT_FLOAT
        type: DT_FLOAT
        type: DT_FLOAT
        type: DT_INT64
        type: DT_FLOAT
        type: DT_FLOAT
        type: DT_FLOAT
        type: DT_FLOAT
        type: DT_FLOAT
        type: DT_FLOAT
        type: DT_FLOAT
        type: DT_FLOAT
      }
    }
  }
}
node {
  name: "save/Assign"
  op: "Assign"
  input: "final_fc_bias"
  input: "save/RestoreV2"
  device: "/device:CPU:*"
  attr {
    key: "T"
    value {
      type: DT_FLOAT
    }
  }
  attr {
    key: "_class"
    value {
      list {
        s: "loc:@final_fc_bias"
      }
    }
  }
  attr {
    key: "use_locking"
    value {
      b: true
    }
  }
  attr {
    key: "validate_shape"
    value {
      b: true
    }
  }
}
node {
  name: "save/Assign_1"
  op: "Assign"
  input: "final_fc_bias/Adam"
  input: "save/RestoreV2:1"
  device: "/device:CPU:*"
  attr {
    key: "T"
    value {
      type: DT_FLOAT
    }
  }
  attr {
    key: "_class"
    value {
      list {
        s: "loc:@final_fc_bias"
      }
    }
  }
  attr {
    key: "use_locking"
    value {
      b: true
    }
  }
  attr {
    key: "validate_shape"
    value {
      b: true
    }
  }
}
node {
  name: "save/Assign_2"
  op: "Assign"
  input: "final_fc_bias/Adam_1"
  input: "save/RestoreV2:2"
  device: "/device:CPU:*"
  attr {
    key: "T"
    value {
      type: DT_FLOAT
    }
  }
  attr {
    key: "_class"
    value {
      list {
        s: "loc:@final_fc_bias"
      }
    }
  }
  attr {
    key: "use_locking"
    value {
      b: true
    }
  }
  attr {
    key: "validate_shape"
    value {
      b: true
    }
  }
}
node {
  name: "save/Assign_3"
  op: "Assign"
  input: "final_fc_weights"
  input: "save/RestoreV2:3"
  device: "/device:CPU:*"
  attr {
    key: "T"
    value {
      type: DT_FLOAT
    }
  }
  attr {
    key: "_class"
    value {
      list {
        s: "loc:@final_fc_weights"
      }
    }
  }
  attr {
    key: "use_locking"
    value {
      b: true
    }
  }
  attr {
    key: "validate_shape"
    value {
      b: true
    }
  }
}
node {
  name: "save/Assign_4"
  op: "Assign"
  input: "final_fc_weights/Adam"
  input: "save/RestoreV2:4"
  device: "/device:CPU:*"
  attr {
    key: "T"
    value {
      type: DT_FLOAT
    }
  }
  attr {
    key: "_class"
    value {
      list {
        s: "loc:@final_fc_weights"
      }
    }
  }
  attr {
    key: "use_locking"
    value {
      b: true
    }
  }
  attr {
    key: "validate_shape"
    value {
      b: true
    }
  }
}
node {
  name: "save/Assign_5"
  op: "Assign"
  input: "final_fc_weights/Adam_1"
  input: "save/RestoreV2:5"
  device: "/device:CPU:*"
  attr {
    key: "T"
    value {
      type: DT_FLOAT
    }
  }
  attr {
    key: "_class"
    value {
      list {
        s: "loc:@final_fc_weights"
      }
    }
  }
  attr {
    key: "use_locking"
    value {
      b: true
    }
  }
  attr {
    key: "validate_shape"
    value {
      b: true
    }
  }
}
node {
  name: "save/Assign_6"
  op: "Assign"
  input: "first_bias"
  input: "save/RestoreV2:6"
  device: "/device:CPU:*"
  attr {
    key: "T"
    value {
      type: DT_FLOAT
    }
  }
  attr {
    key: "_class"
    value {
      list {
        s: "loc:@first_bias"
      }
    }
  }
  attr {
    key: "use_locking"
    value {
      b: true
    }
  }
  attr {
    key: "validate_shape"
    value {
      b: true
    }
  }
}
node {
  name: "save/Assign_7"
  op: "Assign"
  input: "first_bias/Adam"
  input: "save/RestoreV2:7"
  device: "/device:CPU:*"
  attr {
    key: "T"
    value {
      type: DT_FLOAT
    }
  }
  attr {
    key: "_class"
    value {
      list {
        s: "loc:@first_bias"
      }
    }
  }
  attr {
    key: "use_locking"
    value {
      b: true
    }
  }
  attr {
    key: "validate_shape"
    value {
      b: true
    }
  }
}
node {
  name: "save/Assign_8"
  op: "Assign"
  input: "first_bias/Adam_1"
  input: "save/RestoreV2:8"
  device: "/device:CPU:*"
  attr {
    key: "T"
    value {
      type: DT_FLOAT
    }
  }
  attr {
    key: "_class"
    value {
      list {
        s: "loc:@first_bias"
      }
    }
  }
  attr {
    key: "use_locking"
    value {
      b: true
    }
  }
  attr {
    key: "validate_shape"
    value {
      b: true
    }
  }
}
node {
  name: "save/Assign_9"
  op: "Assign"
  input: "first_weights"
  input: "save/RestoreV2:9"
  device: "/device:CPU:*"
  attr {
    key: "T"
    value {
      type: DT_FLOAT
    }
  }
  attr {
    key: "_class"
    value {
      list {
        s: "loc:@first_weights"
      }
    }
  }
  attr {
    key: "use_locking"
    value {
      b: true
    }
  }
  attr {
    key: "validate_shape"
    value {
      b: true
    }
  }
}
node {
  name: "save/Assign_10"
  op: "Assign"
  input: "first_weights/Adam"
  input: "save/RestoreV2:10"
  device: "/device:CPU:*"
  attr {
    key: "T"
    value {
      type: DT_FLOAT
    }
  }
  attr {
    key: "_class"
    value {
      list {
        s: "loc:@first_weights"
      }
    }
  }
  attr {
    key: "use_locking"
    value {
      b: true
    }
  }
  attr {
    key: "validate_shape"
    value {
      b: true
    }
  }
}
node {
  name: "save/Assign_11"
  op: "Assign"
  input: "first_weights/Adam_1"
  input: "save/RestoreV2:11"
  device: "/device:CPU:*"
  attr {
    key: "T"
    value {
      type: DT_FLOAT
    }
  }
  attr {
    key: "_class"
    value {
      list {
        s: "loc:@first_weights"
      }
    }
  }
  attr {
    key: "use_locking"
    value {
      b: true
    }
  }
  attr {
    key: "validate_shape"
    value {
      b: true
    }
  }
}
node {
  name: "save/Assign_12"
  op: "Assign"
  input: "global_step"
  input: "save/RestoreV2:12"
  attr {
    key: "T"
    value {
      type: DT_INT64
    }
  }
  attr {
    key: "_class"
    value {
      list {
        s: "loc:@global_step"
      }
    }
  }
  attr {
    key: "use_locking"
    value {
      b: true
    }
  }
  attr {
    key: "validate_shape"
    value {
      b: true
    }
  }
}
node {
  name: "save/Assign_13"
  op: "Assign"
  input: "second_bias"
  input: "save/RestoreV2:13"
  device: "/device:CPU:*"
  attr {
    key: "T"
    value {
      type: DT_FLOAT
    }
  }
  attr {
    key: "_class"
    value {
      list {
        s: "loc:@second_bias"
      }
    }
  }
  attr {
    key: "use_locking"
    value {
      b: true
    }
  }
  attr {
    key: "validate_shape"
    value {
      b: true
    }
  }
}
node {
  name: "save/Assign_14"
  op: "Assign"
  input: "second_bias/Adam"
  input: "save/RestoreV2:14"
  device: "/device:CPU:*"
  attr {
    key: "T"
    value {
      type: DT_FLOAT
    }
  }
  attr {
    key: "_class"
    value {
      list {
        s: "loc:@second_bias"
      }
    }
  }
  attr {
    key: "use_locking"
    value {
      b: true
    }
  }
  attr {
    key: "validate_shape"
    value {
      b: true
    }
  }
}
node {
  name: "save/Assign_15"
  op: "Assign"
  input: "second_bias/Adam_1"
  input: "save/RestoreV2:15"
  device: "/device:CPU:*"
  attr {
    key: "T"
    value {
      type: DT_FLOAT
    }
  }
  attr {
    key: "_class"
    value {
      list {
        s: "loc:@second_bias"
      }
    }
  }
  attr {
    key: "use_locking"
    value {
      b: true
    }
  }
  attr {
    key: "validate_shape"
    value {
      b: true
    }
  }
}
node {
  name: "save/Assign_16"
  op: "Assign"
  input: "second_weights"
  input: "save/RestoreV2:16"
  device: "/device:CPU:*"
  attr {
    key: "T"
    value {
      type: DT_FLOAT
    }
  }
  attr {
    key: "_class"
    value {
      list {
        s: "loc:@second_weights"
      }
    }
  }
  attr {
    key: "use_locking"
    value {
      b: true
    }
  }
  attr {
    key: "validate_shape"
    value {
      b: true
    }
  }
}
node {
  name: "save/Assign_17"
  op: "Assign"
  input: "second_weights/Adam"
  input: "save/RestoreV2:17"
  device: "/device:CPU:*"
  attr {
    key: "T"
    value {
      type: DT_FLOAT
    }
  }
  attr {
    key: "_class"
    value {
      list {
        s: "loc:@second_weights"
      }
    }
  }
  attr {
    key: "use_locking"
    value {
      b: true
    }
  }
  attr {
    key: "validate_shape"
    value {
      b: true
    }
  }
}
node {
  name: "save/Assign_18"
  op: "Assign"
  input: "second_weights/Adam_1"
  input: "save/RestoreV2:18"
  device: "/device:CPU:*"
  attr {
    key: "T"
    value {
      type: DT_FLOAT
    }
  }
  attr {
    key: "_class"
    value {
      list {
        s: "loc:@second_weights"
      }
    }
  }
  attr {
    key: "use_locking"
    value {
      b: true
    }
  }
  attr {
    key: "validate_shape"
    value {
      b: true
    }
  }
}
node {
  name: "save/Assign_19"
  op: "Assign"
  input: "train/beta1_power"
  input: "save/RestoreV2:19"
  device: "/device:CPU:*"
  attr {
    key: "T"
    value {
      type: DT_FLOAT
    }
  }
  attr {
    key: "_class"
    value {
      list {
        s: "loc:@final_fc_bias"
      }
    }
  }
  attr {
    key: "use_locking"
    value {
      b: true
    }
  }
  attr {
    key: "validate_shape"
    value {
      b: true
    }
  }
}
node {
  name: "save/Assign_20"
  op: "Assign"
  input: "train/beta2_power"
  input: "save/RestoreV2:20"
  device: "/device:CPU:*"
  attr {
    key: "T"
    value {
      type: DT_FLOAT
    }
  }
  attr {
    key: "_class"
    value {
      list {
        s: "loc:@final_fc_bias"
      }
    }
  }
  attr {
    key: "use_locking"
    value {
      b: true
    }
  }
  attr {
    key: "validate_shape"
    value {
      b: true
    }
  }
}
node {
  name: "save/restore_all/NoOp"
  op: "NoOp"
  input: "^save/Assign_12"
}
node {
  name: "save/restore_all/NoOp_1"
  op: "NoOp"
  input: "^save/Assign"
  input: "^save/Assign_1"
  input: "^save/Assign_10"
  input: "^save/Assign_11"
  input: "^save/Assign_13"
  input: "^save/Assign_14"
  input: "^save/Assign_15"
  input: "^save/Assign_16"
  input: "^save/Assign_17"
  input: "^save/Assign_18"
  input: "^save/Assign_19"
  input: "^save/Assign_2"
  input: "^save/Assign_20"
  input: "^save/Assign_3"
  input: "^save/Assign_4"
  input: "^save/Assign_5"
  input: "^save/Assign_6"
  input: "^save/Assign_7"
  input: "^save/Assign_8"
  input: "^save/Assign_9"
  device: "/device:CPU:*"
}
node {
  name: "save/restore_all"
  op: "NoOp"
  input: "^save/restore_all/NoOp"
  input: "^save/restore_all/NoOp_1"
}
node {
  name: "Merge/MergeSummary"
  op: "MergeSummary"
  input: "eval/loss"
  input: "eval/pos_similarity"
  input: "eval/neg_mean_similarity"
  input: "eval/pos_similarity_minus_neg_mean_similarity"
  attr {
    key: "N"
    value {
      i: 4
    }
  }
}
node {
  name: "init/NoOp"
  op: "NoOp"
  input: "^global_step/Assign"
}
node {
  name: "init/NoOp_1"
  op: "NoOp"
  input: "^final_fc_bias/Adam/Assign"
  input: "^final_fc_bias/Adam_1/Assign"
  input: "^final_fc_bias/Assign"
  input: "^final_fc_weights/Adam/Assign"
  input: "^final_fc_weights/Adam_1/Assign"
  input: "^final_fc_weights/Assign"
  input: "^first_bias/Adam/Assign"
  input: "^first_bias/Adam_1/Assign"
  input: "^first_bias/Assign"
  input: "^first_weights/Adam/Assign"
  input: "^first_weights/Adam_1/Assign"
  input: "^first_weights/Assign"
  input: "^second_bias/Adam/Assign"
  input: "^second_bias/Adam_1/Assign"
  input: "^second_bias/Assign"
  input: "^second_weights/Adam/Assign"
  input: "^second_weights/Adam_1/Assign"
  input: "^second_weights/Assign"
  input: "^train/beta1_power/Assign"
  input: "^train/beta2_power/Assign"
  device: "/device:CPU:*"
}
node {
  name: "init"
  op: "NoOp"
  input: "^init/NoOp"
  input: "^init/NoOp_1"
}
versions {
  producer: 134
}
